LeNet/LeNet_With_Aug/LeNet_Updated.pth (torch, 247759 bytes, 10 tensors)

conv1.weight f4 [6, 1, 5, 5]
0	0x3d98bb0c	0.07457551
1	0x3e57c3e5	0.21070822
2	0x3d9e693f	0.07734918
3	0x3d089803	0.033348095
4	0x3d697cc6	0.05700376
5	0xbe184378	-0.14869487
6	0xbdeedafc	-0.11662862
7	0x3d258dbb	0.040418368
8	0xbe673cbd	-0.22581764
9	0xbdb088bd	-0.08619831
10	0xbdc84006	-0.097778365
11	0xbe617400	-0.22016907
12	0xbe9025d9	-0.28153875
13	0xbe68e0f0	-0.22742057
14	0xbe959c9f	-0.29221055
15	0xbe34e732	-0.17666319
16	0x3e4bca76	0.19901451
17	0xbc8c6f44	-0.0171429
18	0x3e24e4b4	0.16102868
19	0xbdd17435	-0.10227243
20	0x3ddd80ac	0.10815558
21	0x3e7d432b	0.24732654
22	0x3e747896	0.23874125
23	0x3e8b9993	0.27265605
24	0x3e5a7bfe	0.21336362
25	0x3df01ed6	0.117246315
26	0x3d9e03b3	0.07715549
27	0x3e368153	0.17822771
28	0xbe230ccf	-0.15922855
29	0xbd5b65d3	-0.053563904
30	0xbe4ac1c7	-0.19800483
31	0x3d0368f0	0.032082498
32	0xbe4dabcf	-0.20085071
33	0x3bf2f95a	0.007414979
34	0x3c3b6615	0.0114379125
35	0xbe4ff140	-0.20306873
36	0xbd85da7e	-0.06535815
37	0xbe2110ad	-0.15729018
38	0x3e16e7a6	0.14736804
39	0xbe0088eb	-0.1255223
40	0x3c36d508	0.011159189
41	0xbd668844	-0.056282297
42	0x3e5da013	0.21643095
43	0x3b125763	0.0022329919
44	0x3d48c2bb	0.049013834
45	0x3e7598ea	0.23984113
46	0x3dd0ec81	0.102013595
47	0x3c21cc93	0.009875434
48	0x3dac0524	0.08399418
49	0x3de3d240	0.111240864
50	0x3dd049c9	0.101703234
51	0xbdcc474c	-0.09974536
52	0x3ded8cce	0.11599122
53	0xbe416435	-0.18885882
54	0xbe0c9bfa	-0.13731375
55	0x3c9e15f6	0.019297581
56	0xbe0c469e	-0.13698813
57	0xbcee7051	-0.029106291
58	0xbd5fe4dd	-0.05466162
59	0x3cf77417	0.030206723
60	0xbe20586d	-0.15658732
61	0xbe4ef56b	-0.20210807
62	0xbe22cec2	-0.15899184
63	0xbce52f96	-0.027976792
64	0xbe5fef9a	-0.21868744
65	0xbd95d6af	-0.07316338
66	0xbe2be25d	-0.1678557
67	0xbda497e8	-0.08036786
68	0xbe5ed895	-0.21762307
69	0xbe1dc44f	-0.15406917
70	0x3e00b3ca	0.12568584
71	0x3e7349d5	0.23758633
72	0xbb53ee9c	-0.0032338267
73	0x3e29e162	0.16589883
74	0xbe18a66b	-0.14907233
75	0x3ddb277f	0.10700893
76	0x3e970dbe	0.29502672
77	0x3e9eafbb	0.30993447
78	0xbd8dce0a	-0.069240645
79	0xbd21d9cb	-0.039514344
80	0x3d185002	0.037185676
81	0x3ec1b124	0.3783046
82	0x3e9d9d9b	0.30784306
83	0x3e658777	0.22414957
84	0xbddcb7c9	-0.10777242
85	0xbd77fed7	-0.06054577
86	0x3e8a7db6	0.27049035
87	0x3e14cea3	0.1453195
88	0xbe1aaa79	-0.15104093
89	0xbe42e174	-0.19031316
90	0x3c25633f	0.010094463
91	0x3d0f3b25	0.034968514
92	0x3e31c714	0.17361099
93	0x3de96465	0.11396102
94	0xbe1585d9	-0.1460184
95	0xbdf65516	-0.120279476
96	0xbc8bfc60	-0.017088115
97	0xbe078a7e	-0.13236424
98	0xbda4c5d9	-0.08045549
99	0xbe15233a	-0.14564219
100	0x3d443440	0.047901392
101	0x3e184355	0.14869435
102	0x3d058a9a	0.032602884
103	0x3e14be1d	0.14525647
104	0xbdae9a96	-0.08525579
105	0x3db632a9	0.088963814
106	0x3e0a1cc9	0.13487543
107	0x3e3c1ce8	0.18370402
108	0xbde23252	-0.11044754
109	0x3e3ce3fa	0.18446341
110	0x3e08f644	0.13375193
111	0x3d993d65	0.07482413
112	0xbce12b1f	-0.027486382
113	0xbdd9af99	-0.10629196
114	0xbe2d87e0	-0.16946363
115	0x3d097c2d	0.03356569
116	0xbd5a260b	-0.053258937
117	0xbdc9daf7	-0.09856217
118	0x390bbcd6	0.0001332642
119	0xbe7d2828	-0.2472235
120	0xbe4d744a	-0.20063892
121	0xbde7d4b0	-0.11319864
122	0xbe05ca2c	-0.13065404
123	0xbe6b6e03	-0.22991185
124	0x3c81014e	0.015747692
125	0x3e772c52	0.24138
126	0xbe36c1ef	-0.17847417
127	0xbe352078	-0.17688167
128	0xbe6a2c0c	-0.22868365
129	0xbde3dd63	-0.111262105
130	0x3caed651	0.021342428
131	0x3e7c6a72	0.2464998
132	0xbcf06f0c	-0.029349826
133	0xbe3f2121	-0.18664981
134	0xbe77964a	-0.24178424
135	0xbdc02776	-0.093825266
136	0x3e137202	0.1439896
137	0x3cc2f270	0.023797244
138	0x3d18d4c6	0.03731229
139	0x3d5b713d	0.05357479
140	0xbd8fe453	-0.07025971
141	0x3e1b9d4f	0.15196727
142	0x3d67ba08	0.056573898
143	0x3e0c8204	0.13721472
144	0x3e3121e6	0.17298087
145	0xbd24b6a1	-0.04021323
146	0x3e1aa7c5	0.15103061
147	0xbdbd3f6c	-0.092406124
148	0xbd1c8ebf	-0.03822207
149	0x3e16ec31	0.14738537

conv1.bias f4 [6]
0	0xbe070904	-0.13187033
1	0x3e17344b	0.14766042
2	0xbe04b3b0	-0.1295917
3	0x3ddca018	0.10772723
4	0xbe5a2a8a	-0.2130529
5	0xbc6e383f	-0.014539777

conv2.weight f4 [16, 6, 5, 5]
0	0x3e9c9c5e	0.3058805
1	0x3e924201	0.28565982
2	0x3e624d85	0.22099884
3	0x3e32a53b	0.17445843
4	0x3e05bd68	0.13060534
5	0x3e817304	0.25283062
6	0x3e9dcacc	0.30818784
7	0x3eb67e8b	0.3564342
8	0x3e92bc2d	0.28659192
9	0x3e95c7ba	0.29253942
10	0x3d9a207c	0.07525727
11	0x3d7a90e7	0.061173346
12	0x3e462511	0.19350077
13	0x3e6b9ad3	0.2300828
14	0x3e97802f	0.29589984
15	0x3d4d6184	0.050141826
16	0x3d23663b	0.039892416
17	0xbc2af3f9	-0.010434144
18	0xbcb17437	-0.02166186
19	0x3cfdafcc	0.030967616
20	0xbe69e129	-0.22839798
21	0xbe4f1c53	-0.20225649
22	0xbdc1a6be	-0.09455632
23	0xbda69a5d	-0.08134911
24	0xbd8ec9ca	-0.06972082
25	0xbd2739eb	-0.04082672
26	0xbc047d5a	-0.008086527
27	0xbcaa55d6	-0.020792883
28	0x3ca8a912	0.020588432
29	0x3d244388	0.040103465
30	0xbba5716d	-0.005048922
31	0xbda59d8b	-0.080866896
32	0x3d41358e	0.047170214
33	0xbd1704c1	-0.036869768
34	0xbd2c4908	-0.042061836
35	0xbda280b7	-0.07934707
36	0xbdb2cc02	-0.08730318
37	0xbe095123	-0.13409857
38	0xbe0e6543	-0.13905816
39	0x3abe4028	0.001451497
40	0x3b167872	0.0022959975
41	0x3d146466	0.03622856
42	0xbc3e1f58	-0.011604153
43	0xbdb81d9d	-0.08990023
44	0xbdf82346	-0.12116103
45	0xbc601eae	-0.01367919
46	0xbdb26212	-0.08710112
47	0xbd102383	-0.035190117
48	0xbd5f2e9a	-0.054487802
49	0x3c7dc18c	0.01548804
50	0xbd345895	-0.04402979
51	0xbd5a0b7a	-0.0532336
52	0x3aac502f	0.0013146455
53	0x3d27cc38	0.040966243
54	0x3bedeae3	0.0072606667
55	0xbd9fcb43	-0.07802441
56	0xbe215d67	-0.15758286
57	0xbd16774b	-0.03673486
58	0xbdcf2c8a	-0.10115917
59	0xbda639dd	-0.08116505
60	0x3bd33d3d	0.006446509
61	0x3d60cf4f	0.054885205
62	0x3d8b966b	0.06815799
63	0x3d92b004	0.071624786
64	0xbd6481e5	-0.05578794
65	0x3d8a7fb8	0.06762642
66	0x3c414504	0.01179624
67	0x3c4a4524	0.012345586
68	0x3d2ea6da	0.04263959
69	0x3d5f6b98	0.05454597
70	0x3c987db6	0.018614631
71	0xbd12fa3c	-0.035883173
72	0x3da76262	0.08173062
73	0x3cf8251c	0.030291133
74	0x3d4a87ad	0.049445797
75	0xbcd6be4d	-0.02621379
76	0xbcd85c46	-0.026411187
77	0xbc469254	-0.012119848
78	0xbdab1d92	-0.083552495
79	0xbcec4d93	-0.028845584
80	0x3cca82e6	0.02472062
81	0xbd4fa353	-0.050692867
82	0xbd887021	-0.06662012
83	0xbd8414d7	-0.064492874
84	0xbc8553fd	-0.0162754
85	0x3c78c394	0.015183348
86	0xbdbda402	-0.09259798
87	0x3d0989c6	0.033578657
88	0x3dbec049	0.09314019
89	0x3ddf5270	0.109043956
90	0xbe227da3	-0.15868239
91	0xbd289268	-0.04115525
92	0x3d3050f0	0.043045938
93	0x3e281140	0.1641283
94	0x3db4f4bc	0.08835742
95	0xbe027429	-0.12739624
96	0xbda24fdb	-0.079253875
97	0x3e260710	0.16213632
98	0x3e023bb2	0.12718084
99	0xbcd18455	-0.025575796
100	0xbdadcab9	-0.08485932
101	0x3d13d461	0.036091212
102	0x3a7546c5	0.0009356554
103	0x3e0c2717	0.13686787
104	0x3dae4c1b	0.0851061
105	0x3e0edfb3	0.13952522
106	0x3d12ea26	0.035867833
107	0x3d44b60d	0.04802518
108	0x3e6815a3	0.22664504
109	0x3e58c5fd	0.21169277
110	0x3e2bb4a7	0.16768132
111	0x3e389c57	0.18028389
112	0x3e1fc210	0.15601373
113	0x3e824923	0.25446424
114	0x3e630bd7	0.22172485
115	0xbd2e1bb2	-0.04250688
116	0xbdc843e3	-0.09778573
117	0x3e04b911	0.12961222
118	0x3df21e80	0.11822224
119	0x3e0bb3ab	0.13642757
120	0xbe504946	-0.20340452
121	0xbdfdcc65	-0.12392501
122	0xbaf71d82	-0.0018853399
123	0xbdcb792e	-0.099352226
124	0xbd5e610c	-0.05429177
125	0xbd528074	-0.051392034
126	0xbdb1ef94	-0.08688274
127	0xbc07a3fa	-0.008278841
128	0xbe1e0a1b	-0.15433542
129	0xbe46baf3	-0.19407253
130	0x3e2123d7	0.15736328
131	0x3b350efc	0.002762734
132	0x3e265e84	0.16246992
133	0x3e32c818	0.17459142
134	0x3d0b4a29	0.03400627
135	0x3c90509f	0.017616568
136	0x3d7babef	0.061443266
137	0x3dbeba90	0.09312928
138	0x3e0edb17	0.13950764
139	0x3df186ba	0.11793275
140	0x3d61134f	0.054950055
141	0xbbf80363	-0.007568763
142	0x3dce2b55	0.10066859
143	0x3d5c4b1b	0.053782564
144	0x3dbb8ebf	0.09158086
145	0xbe0c5da1	-0.13707592
146	0xbde51a53	-0.111866616
147	0xbdb57fb7	-0.0886225
148	0xbbec9be0	-0.00722073
149	0xbe18a751	-0.14907576
150	0x3db2b26c	0.087254375
151	0x3d8ba4c0	0.06818533
152	0x3d7c9283	0.061663162
153	0xbd207488	-0.039173633
154	0x3dc73148	0.097261965
155	0xbca86d17	-0.02055983
156	0x3e05404d	0.1301281
157	0x3e461b0b	0.19346254
158	0x3e64521f	0.22296952
159	0x3e557167	0.20844041
160	0xbd5543de	-0.052066676
161	0x3defe3b3	0.11713352
162	0x3de80450	0.113289475
163	0x3cfb43d3	0.03067199
164	0xbe1208d5	-0.14261182
165	0xbe417686	-0.1889287
166	0xbd95133a	-0.07279058
167	0x3e36a0c4	0.17834765
168	0x3da618cb	0.08110198
169	0xbcfec802	-0.03110123
170	0x3d43c405	0.04779436
171	0x3e490d09	0.19633879
172	0x3e47a4a8	0.19496405
173	0x3e73e3d8	0.23817384
174	0x3e8bf9de	0.2733907
175	0x3d88c3d3	0.066779755
176	0xbcc7ab28	-0.024373606
177	0x3d83d81b	0.06437703
178	0xbd423608	-0.04741481
179	0x3d78be73	0.0607285
180	0x3c8f050e	0.017458465
181	0xbde58fc1	-0.112090595
182	0xbde79bad	-0.1130899
183	0x3b00d2e6	0.0019656955
184	0x3d983f1e	0.07433914
185	0xbd3b1451	-0.045673672
186	0xbce8eef1	-0.028434249
187	0xbd22ac79	-0.039715264
188	0x3dba8732	0.09107818
189	0xbd371a66	-0.04470291
190	0xbda1687c	-0.07881257
191	0xbd4622e4	-0.048373118
192	0x3d6e6e0d	0.05821042
193	0x3dfed0bc	0.12442157
194	0x3b9d74ba	0.0048051747
195	0xbe01ae12	-0.12664059
196	0x3c57ac1b	0.013163592
197	0xbd418af6	-0.047251664
198	0x3c853d04	0.016264446
199	0x3dd3184e	0.1030737
200	0xbe5a3292	-0.21308354
201	0xbe45676d	-0.19277735
202	0xbe0c45da	-0.13698521
203	0x3cdf434c	0.02725377
204	0x3e3de624	0.18544823
205	0xbde84e48	-0.11343056
206	0xbe0f48c9	-0.13992609
207	0x3d66f7cb	0.056388658
208	0x3dfef270	0.12448585
209	0x3e0a5f56	0.1351293
210	0xbdb9601e	-0.09051536
211	0xbdf294d9	-0.11844797
212	0x39ea9eb3	0.00044750198
213	0x3d950cf0	0.07277858
214	0x3e24b423	0.16084342
215	0xbce08ebb	-0.02741181
216	0xbd0a6a6e	-0.033792906
217	0xbcda79a6	-0.026669335
218	0xbd4fac71	-0.050701562
219	0x3df08c01	0.117454536
220	0x3caef57a	0.021357287
221	0xbd3d0b1b	-0.04615317
222	0xbd650716	-0.05591496
223	0xbdc120bd	-0.094300725
224	0x3c15215a	0.00910219
225	0xbe0ce8d2	-0.13760689
226	0xbcc4eeae	-0.024039593
227	0xbcd70eaa	-0.02625211
228	0x3c973895	0.018459598
229	0x3d8e259e	0.06940769
230	0x3d704cf8	0.058667153
231	0x3d5c1f56	0.05374082
232	0x3d57da24	0.05269827
233	0xbddf03b5	-0.10889379
234	0xbe182bca	-0.14860454
235	0x3d8a4e99	0.067532726
236	0x3d0cca4b	0.03437261
237	0x3d2394f0	0.03993696
238	0xbd5b4f3d	-0.053542364
239	0x3da07206	0.07834248
240	0x3deb5f56	0.11492793
241	0x3c36a41a	0.011147523
242	0xbdff918a	-0.12478931
243	0xbe13cfe5	-0.14434774
244	0x3d0246f3	0.031805944
245	0xbd86910c	-0.06570634
246	0xbd9f10f6	-0.07766907
247	0xbdad3304	-0.08456996
248	0xbe3989fc	-0.18119043
249	0xbe4622cc	-0.19349211
250	0xbd14cf01	-0.036330227
251	0xbcbc6e10	-0.0230017
252	0x3d48e073	0.049042176
253	0x3e6ae2ab	0.2293803
254	0x3e91320e	0.283585
255	0x3e1ae75f	0.15127324

conv2.bias f4 [16]
0	0xbe16f31d	-0.14741178
1	0x3d49a3f5	0.049228627
2	0x3d3b33f9	0.04570386
3	0x3d3908f9	0.045174573
4	0x3d0a651a	0.033787824
5	0xbdad981a	-0.08476277
6	0xbca62d6e	-0.020285334
7	0xbe2af9ee	-0.16696903
8	0x3ddd6d2d	0.10811839
9	0xbdb74d40	-0.08950281
10	0x3d86cc82	0.065819755
11	0xbceb1f90	-0.028701574
12	0xbdf35385	-0.118811645
13	0xbd839d30	-0.064264655
14	0x3cba3971	0.022732468
15	0xbd91484c	-0.07093868

conv3.weight f4 [120, 16, 5, 5]
0	0xbda91db8	-0.082576215
1	0xbe17018e	-0.14746687
2	0xbd73842b	-0.059452217
3	0xbd425c55	-0.047451336
4	0xbdbdd937	-0.09269946
5	0x3de0cc15	0.109764256
6	0xbd83e918	-0.064409435
7	0x3e417106	0.18890771
8	0x3e005745	0.1253329
9	0xbde1042c	-0.10987124
10	0x3c2eccea	0.0106689725
11	0xbda07fe5	-0.07836894
12	0xbd792a4c	-0.060831353
13	0x3ca44616	0.02005295
14	0xbdbc32ae	-0.09189354
15	0x3e1805bf	0.14845942
16	0x3dd6fb6f	0.10497176
17	0x3e392c26	0.18083248
18	0x3e1614b9	0.14656343
19	0x3d5081d8	0.05090508
20	0x3d90c9c0	0.07069731
21	0x3c234b8e	0.009966744
22	0xbcd81035	-0.026374916
23	0xbd8aceff	-0.067777626
24	0xbd419d97	-0.04726943
25	0x3d64482c	0.05573289
26	0xbde959c6	-0.11394076
27	0xbc7a9a19	-0.015295529
28	0x3c5768ef	0.013147577
29	0xbd4e1123	-0.05030931
30	0xbda5a610	-0.080883145
31	0x3c622729	0.013803282
32	0x3e10b118	0.14130056
33	0x3e695412	0.22785977
34	0xbe0172bf	-0.12641428
35	0x3e2c257e	0.16811177
36	0xbd1450ee	-0.036209993
37	0xbe33f1c6	-0.17572698
38	0x3d6cb4a5	0.057789464
39	0xbdfc318d	-0.123141386
40	0x3ced2e85	0.028952846
41	0xbdd4ee05	-0.10396961
42	0x3df3b1f3	0.118991755
43	0x3e03bd9d	0.128653
44	0x3d1a764e	0.03771048
45	0xbcae4049	-0.021270888
46	0xbd95b6e7	-0.073102765
47	0xbca80a12	-0.020512614
48	0x3e002ab2	0.12516287
49	0xbe219b25	-0.15781839
50	0xbe901f4d	-0.2814888
51	0x3cbac1c9	0.022797482
52	0x3d623fb7	0.055236544
53	0x3de5a3e5	0.11212901
54	0x3db99285	0.090611495
55	0x3d8d3c2e	0.06896244
56	0xbcd1b413	-0.025598561
57	0xbc7b516b	-0.015339236
58	0xbdb8b8db	-0.090196334
59	0xbe090617	-0.1338123
60	0xbdbfa1f1	-0.0935706
61	0xbcfae694	-0.030627526
62	0x3dcda223	0.10040691
63	0x3deb9943	0.11503842
64	0xbddb92a5	-0.107213296
65	0x3d484b87	0.048900153
66	0x3cf21f69	0.029555993
67	0xbe7dbd8e	-0.2477934
68	0xbdb1c049	-0.086792536
69	0xbd3242b3	-0.04352064
70	0x3ca8ad75	0.020590523
71	0x3de67da9	0.112544365
72	0x3e0fb46f	0.14033674
73	0x3e21d462	0.15803674
74	0x3d6dfab4	0.058100417
75	0xbe03fab4	-0.12888604
76	0xbd8e4553	-0.06946816
77	0xbd04bbfc	-0.03240584
78	0x3b87982b	0.004138013
79	0xbdf51eed	-0.11968789
80	0xbd7cfb88	-0.061763316
81	0xbd99de6a	-0.07513125
82	0xbe114d9b	-0.1418976
83	0xbcfd398b	-0.030911228
84	0xbdcf50de	-0.10122846
85	0x3d80f893	0.06297412
86	0x3dc3b1ce	0.09555398
87	0xbd822ec1	-0.06356574
88	0x3d634b51	0.05549175
89	0x3d9b41b6	0.07580893
90	0xbdce1a0a	-0.1006356
91	0x3b7318e3	0.003709369
92	0xbce11013	-0.027473485
93	0xbdd61d86	-0.1045485
94	0x3d8080a2	0.06274535
95	0xbda81f05	-0.082090415
96	0x3b43f7a9	0.0029902256
97	0xbe1ab5ae	-0.15108368
98	0xbdd58895	-0.104264416
99	0xbda68a15	-0.08131806
100	0xbddc39b4	-0.107531935
101	0xbdda1309	-0.10648162
102	0xbbf7e187	-0.0075647268
103	0xbd73ba77	-0.059504
104	0xbd2c1ed0	-0.042021573
105	0xbd043fcf	-0.032287415
106	0xbddde4bf	-0.108346455
107	0xbdce0486	-0.100594565
108	0xbd725aeb	-0.059168737
109	0xbd20ccf1	-0.039257947
110	0x3da8ac41	0.0823598
111	0xbd1cf91e	-0.038323514
112	0xbe1e1a42	-0.15439704
113	0xbd81da6f	-0.06340491
114	0x3d094503	0.03351308
115	0xbd8bbdc8	-0.06823307
116	0xbdf34ea5	-0.11880235
117	0x3d2a7678	0.041616887
118	0x3c599c3c	0.013281878
119	0xbd2d7a4e	-0.042352967
120	0x3d3701f0	0.044679582
121	0x3cfdc2e1	0.030976715
122	0x3db2b52c	0.08725962
123	0x3ceca9d9	0.028889583
124	0xbdc02b66	-0.093832776
125	0x3cf61e4d	0.030043745
126	0xbd240603	-0.040044796
127	0x3d96b8bc	0.07359454
128	0xbc52733e	-0.012844859
129	0xbbe3d30c	-0.006952649
130	0x3db9d09f	0.090729944
131	0x3dbedef2	0.09319867
132	0x3d9f3136	0.07773058
133	0x3d42d20d	0.0475636
134	0xbdb77388	-0.08957583
135	0x3cb79da7	0.022414042
136	0xbdaf58ee	-0.08561884
137	0xbe1029bb	-0.14078419
138	0xbd737f14	-0.059447363
139	0xbe08d303	-0.13361745
140	0x3d871be6	0.06597118
141	0xbccf375c	-0.025294952
142	0x3dae0ad2	0.084981576
143	0x3d1a91ac	0.03773658
144	0xbd63692d	-0.055520225
145	0x3dcb626b	0.09930881
146	0x3dd0e6d3	0.10200276
147	0x3da20d51	0.07912696
148	0x3dca1f4b	0.0986925
149	0x3d08cbff	0.03339767
150	0x3da7366d	0.08164678
151	0xbbaf3099	-0.0053463695
152	0x3da0fad0	0.07860339
153	0x3dba5ded	0.09099946
154	0xbd829d82	-0.063776985
155	0x3de3a2f7	0.111150675
156	0xbd8e5f3e	-0.0695176
157	0x3c465f9d	0.012107757
158	0x3b361e31	0.0027788992
159	0xbd08c7e1	-0.033393744
160	0x3e0b7d60	0.13622046
161	0xbdb428f4	-0.08796874
162	0xbe0a395c	-0.13498443
163	0xbcc74c93	-0.024328506
164	0xbd99eb14	-0.07515541
165	0x3da3600c	0.07977304
166	0xbb322a03	-0.0027185685
167	0x3df2f2eb	0.11862739
168	0x3e075582	0.13216212
169	0xbd7e384c	-0.062065408
170	0x3df68507	0.12037092
171	0x3cf46825	0.029834816
172	0x3e0dcd3f	0.13847826
173	0x3e46475f	0.19363163
174	0xbd99ac72	-0.075035945
175	0x3d7dd126	0.061967038
176	0x3dd06ef6	0.10177414
177	0x3b9b35e2	0.004736648
178	0x3da5960b	0.08085259
179	0xbd8b815a	-0.06811781
180	0x3d1df239	0.03856108
181	0x3bce9335	0.0063041695
182	0x3b8538cc	0.0040656086
183	0x3d8a8d81	0.06765271
184	0xbe2be266	-0.16785583
185	0x3d1ff073	0.03904767
186	0x3d83c917	0.06434839
187	0xbe15fc87	-0.14647113
188	0xbdc94cf4	-0.09829131
189	0x3d421da3	0.047391545
190	0x3dbc4d1a	0.091943935
191	0x3d316a7c	0.043314442
192	0x3d0e5cab	0.034756344
193	0x3c07c412	0.008286493
194	0x3e38c78d	0.18044873
195	0x3dc77889	0.09739787
196	0xbd483c76	-0.048885785
197	0xbdb8b0e5	-0.09018115
198	0x3dfea75a	0.124342635
199	0x3dba027a	0.090825036
200	0xbbd11969	-0.006381203
201	0x3d964abc	0.07338473
202	0x3a603301	0.0008552522
203	0x3e1025c0	0.140769
204	0x3cfbd716	0.03074221
205	0x3d6e84b1	0.058232013
206	0x3dece624	0.11567333
207	0xbdaf3eb3	-0.08556881
208	0xbdccea8e	-0.10005675
209	0xbd8cae2f	-0.068691604
210	0x3dedc641	0.116100796
211	0x3e1ffc03	0.15623479
212	0xbc316f7a	-0.010829801
213	0xbdd5c392	-0.10437693
214	0x3da937da	0.08262606
215	0x3d8619de	0.065479025
216	0x3d8257ab	0.063643776
217	0x3a664000	0.00087833405
218	0x3c079512	0.008275287
219	0x3dca2635	0.09870569
220	0xbd321ca0	-0.04348433
221	0x3b02c11b	0.0019951526
222	0xbc825ff3	-0.015914893
223	0xbdad21f6	-0.08453743
224	0x3d3bf513	0.045888018
225	0x3d001a42	0.03127504
226	0x3e671dc0	0.22569942
227	0xbd63a67b	-0.05557869
228	0xbe1d2eb7	-0.15349852
229	0xbe80751f	-0.25089356
230	0x3dd86e47	0.10567909
231	0x3e3cbad9	0.18430652
232	0xbda46d61	-0.08028675
233	0x3c5d132b	0.0134933395
234	0xbc82d79e	-0.015971955
235	0x3e0b67de	0.13613841
236	0x3dd2f215	0.1030008
237	0xbcbe55fd	-0.023234362
238	0xbd4e4f56	-0.05036863
239	0x3dd8b74b	0.10581835
240	0xbdf3426e	-0.11877905
241	0x3e343c3d	0.17601104
242	0x3e4de2b8	0.20106018
243	0x3dd0def2	0.101987734
244	0x3df46130	0.119325995
245	0x3d595958	0.05306372
246	0x3dfb1dfb	0.12261578
247	0x3da2235a	0.07916899
248	0xbd5e6c9e	-0.054302804
249	0xbd7d762e	-0.061880283
250	0xbe363701	-0.1779442
251	0xbcd5f63f	-0.026118396
252	0xbdd9685d	-0.10615609
253	0xbe801511	-0.25016072
254	0xbe56768c	-0.2094366
255	0xbde8941a	-0.11356373

conv3.bias f4 [120]
0	0x3c00f27d	0.007870314
1	0x3d72e975	0.059304673
2	0xbd155d25	-0.036465783
3	0xbd8d7db6	-0.06908743
4	0x3ce20b58	0.0275933
5	0x3d1ccfdc	0.038284168
6	0x3c5b3bff	0.013381003
7	0xbc218c98	-0.00986018
8	0xbd8c6d80	-0.06856823
9	0x3d175a3b	0.036951285
10	0x3be9a801	0.0071306233
11	0xbc6793fd	-0.014134404
12	0x3c8a67ac	0.016895138
13	0xbd4bd16b	-0.049760263
14	0xbc16e1d8	-0.009209119
15	0x3dc99c67	0.098442845
16	0xbdce50fd	-0.10074041
17	0xbc54ea52	-0.012995319
18	0xbd7077e9	-0.058708105
19	0xbbfb3615	-0.007666359
20	0x3c7b3ab8	0.015333824
21	0xbc68647b	-0.014184113
22	0xbd84141b	-0.06449147
23	0xbc69c2c4	-0.014267627
24	0x3d088f9b	0.033340078
25	0xbde3093e	-0.11085747
26	0x3c0cbcc0	0.008589923
27	0x3c72ca43	0.014818731
28	0xbd950b6b	-0.072775684
29	0xbd7f514e	-0.062333398
30	0xbd1fa020	-0.038971066
31	0xbcae8fee	-0.021308865
32	0x3e0b03fe	0.13575742
33	0x3cccc040	0.024994016
34	0x3cbc7213	0.023003614
35	0xbcfc9404	-0.030832298
36	0xbd2a4f5e	-0.041579597
37	0xbcd814bf	-0.02637708
38	0xbc25659e	-0.010095028
39	0xbc972f7e	-0.018455263
40	0xbba19e3d	-0.0049321936
41	0x3c5c15e1	0.013432951
42	0xbc702816	-0.014657995
43	0xbc34277e	-0.010995744
44	0xbc94a3aa	-0.018144447
45	0xbddfd4d8	-0.109292686
46	0x3e395ed7	0.18102585
47	0xbcb7fc66	-0.02245922
48	0x3e32509f	0.17413567
49	0xbcfcc49f	-0.030855475
50	0xbdd57568	-0.10422784
51	0xbc5c85fe	-0.013459681
52	0xbd661763	-0.056174647
53	0xbd2d288d	-0.042275
54	0xbb9078cd	-0.004408932
55	0xbd209e19	-0.039213274
56	0x3cffdecf	0.031234173
57	0x3ce10edd	0.027472908
58	0x3d205b0d	0.039149333
59	0xbd8cf00c	-0.06881723
60	0xbc03865f	-0.008027642
61	0xbd3d13d5	-0.04616149
62	0x3d162384	0.036654964
63	0x3c7c1e44	0.015388075
64	0xbc2524ce	-0.010079576
65	0xbd1fbed2	-0.03900034
66	0xbbedc725	-0.007256406
67	0x3de5407b	0.11193939
68	0x3d5e639e	0.05429422
69	0xbcb4c1e8	-0.022065118
70	0xbc1d21d2	-0.009590583
71	0xbd0ddd11	-0.034634653
72	0xbcb16c8e	-0.021658208
73	0xbd816df7	-0.06319802
74	0x3c8afa4a	0.01696505
75	0xbcce45c4	-0.025179751
76	0x3bbb9c98	0.0057254545
77	0x3b360a06	0.002777697
78	0xbd135045	-0.035965223
79	0xbbfd2f3c	-0.007726578
80	0xbd0e6c3e	-0.034771197
81	0xb97a98bd	-0.00023898757
82	0xbaec63ef	-0.0018035154
83	0xbd1d24ba	-0.038365103
84	0x3cd76f4d	0.02629819
85	0xbd8a4e67	-0.06753235
86	0xbd28295e	-0.041055076
87	0x3cb25404	0.021768577
88	0xbad4c4e0	-0.001623299
89	0x3c0ec74e	0.00871451
90	0xbd517dce	-0.051145367
91	0xbd502701	-0.050818447
92	0xbd79bbd8	-0.060970157
93	0xbd259af4	-0.040430978
94	0x3e0162e6	0.12635383
95	0x3d0859a6	0.03328862
96	0xbb72d87c	-0.0037055304
97	0xbd80bc4f	-0.06285917
98	0xbc644cf9	-0.013934367
99	0x3df4de00	0.11956406
100	0xbd630976	-0.055428945
101	0xbd973b7b	-0.07384392
102	0x3b491f5e	0.0030688862
103	0x3c680770	0.0141619295
104	0xbd603e67	-0.05474701
105	0xbdc9e751	-0.09858573
106	0x3c2f1fe5	0.010688757
107	0x3c8dca87	0.017308487
108	0x3dc96d10	0.09835255
109	0xbcde02cb	-0.027100941
110	0x3af6550e	0.0018793659
111	0x3c4cee33	0.012507963
112	0xbd2a2163	-0.041535746
113	0xbd7a3f49	-0.06109551
114	0xbd2b789e	-0.041863076
115	0x3d0ef363	0.03490008
116	0xbda4dc35	-0.08049814
117	0x3bb382ca	0.0054782378
118	0x3d6cf268	0.057848364
119	0xbcc99e40	-0.024611592

linear1.weight f4 [84, 120]
0	0x3e878034	0.26465
1	0xbe33226f	-0.17493604
2	0x3df860be	0.12127827
3	0xbdd118a0	-0.10209775
4	0xbdbe8d36	-0.093042776
5	0xbe104d75	-0.14092048
6	0xbd02d461	-0.03194082
7	0xbcd7e174	-0.026352622
8	0x3e3a426e	0.18189403
9	0xbb8b2105	-0.0042458796
10	0x3dcfdd4b	0.1014963
11	0xbcb5ebb2	-0.022207115
12	0x3dac8b8d	0.08425055
13	0xba1af5b5	-0.0005911247
14	0x3e2ad431	0.16682507
15	0x3e9b44fa	0.30326062
16	0x3d1d2f3e	0.03837513
17	0x3d969f26	0.07354574
18	0x3a5c6456	0.0008407285
19	0x3db03432	0.086037055
20	0x3dc14b98	0.094382465
21	0x3c801144	0.015633233
22	0xbd9f3cef	-0.07775294
23	0x3d23c083	0.039978515
24	0xbd9266ef	-0.07148539
25	0x3df4f464	0.11960676
26	0x3e8646f5	0.2622601
27	0x3e3ae90c	0.18252963
28	0x3d2e33d3	0.042529892
29	0x3ba27e8b	0.0049589328
30	0x3e2d0c9b	0.1689934
31	0xbd5675a6	-0.052358292
32	0x3ea906d2	0.33013016
33	0x3bc1553d	0.005900054
34	0x3cabe251	0.02098194
35	0x3b9c8955	0.0047771134
36	0xbb82a28f	-0.0039866637
37	0xbc9bb4c7	-0.0190071
38	0x3dc9bcaf	0.09850442
39	0x3d62cfe7	0.055374052
40	0x3d4c017f	0.049806114
41	0x3e051e32	0.129998
42	0x3dc5508d	0.096345045
43	0xbd9b40be	-0.07580708
44	0x3dbbf44f	0.091774575
45	0x3dac2e45	0.08407263
46	0xbda89026	-0.08230619
47	0x3e919f4a	0.2844184
48	0x3d7233d4	0.05913146
49	0x3db81a5d	0.089894034
50	0x3e64eafe	0.22355267
51	0x3db1a45e	0.08673929
52	0xbd3ede50	-0.046598732
53	0xbd331479	-0.043720696
54	0x3d45152b	0.04811589
55	0xbd5120ee	-0.051056795
56	0x3eab3e8e	0.33446163
57	0x3d000534	0.031254962
58	0x3e6585ea	0.22414365
59	0x3d3356f9	0.043784115
60	0x3ddf14f9	0.10892672
61	0xba90e5ff	-0.0011054872
62	0x3da0f7e7	0.078597836
63	0xbe15f5fc	-0.14644617
64	0x3e2f2c3c	0.17106718
65	0xbe3d35e4	-0.18477589
66	0xbd2d4a26	-0.04230704
67	0xbbec1753	-0.007204929
68	0xbe8bb5da	-0.2728718
69	0xbd997d1f	-0.07494568
70	0xbd623a54	-0.055231407
71	0x3ea2e164	0.31812584
72	0xbd6c6db1	-0.057721797
73	0x3e0d679d	0.13809057
74	0xbd33958b	-0.043843787
75	0x3dae76eb	0.085187756
76	0x3dbdd920	0.09269929
77	0x3e213081	0.15741159
78	0xbda14f9f	-0.07876515
79	0x3c3ff9e6	0.011717295
80	0xbdc0ff94	-0.09423748
81	0xbaac09c4	-0.0013125469
82	0xbde33d86	-0.11095719
83	0x3cea3008	0.028587356
84	0x3bd54572	0.0065085227
85	0x3e43891d	0.19095273
86	0xbcf5f92c	-0.030026041
87	0x3db4c4b5	0.088265814
88	0x3c7ea6f5	0.015542735
89	0x3de06d96	0.10958402
90	0x3dddb6fb	0.108259164
91	0xbcd6ccd0	-0.02622071
92	0xbd35c183	-0.044374
93	0x3d9991de	0.07498525
94	0x3da9f28e	0.08298217
95	0xbd0c9354	-0.03432019
96	0x3d120aae	0.035654716
97	0xbbe8eba5	-0.007108169
98	0x3e88b231	0.2669845
99	0xbd68fb63	-0.056880366
100	0x3d7f4942	0.062325723
101	0x3e0da90c	0.13834018
102	0xbd56a1eb	-0.05240051
103	0xbc50a030	-0.012733504
104	0x3d67ddfe	0.056608193
105	0x3e3ba290	0.18323731
106	0xbd4ed067	-0.050491717
107	0x3d92190c	0.071336836
108	0xbe8cb3c3	-0.27480897
109	0x3e75f9db	0.24021094
110	0xbd052b64	-0.032512084
111	0x3e690b83	0.22758298
112	0x3c45a291	0.012062685
113	0x3c836f9f	0.016044436
114	0x3b975d0e	0.0046192473
115	0x3b749b9b	0.0037324193
116	0x3c9de0db	0.019272259
117	0xbcefd0c3	-0.02927435
118	0x3e8dd4d3	0.27701434
119	0x3dad4d69	0.084620304
120	0xbeb84bad	-0.35995236
121	0x3dd22355	0.10260645
122	0xbc6bd31d	-0.014393595
123	0xbe45d120	-0.19318056
124	0x3e85435a	0.26027948
125	0x3e75aebd	0.23992439
126	0xbd9ff9ff	-0.07811355
127	0xbd6ada6e	-0.057337217
128	0xbed4548e	-0.4147076
129	0xbced966f	-0.029002396
130	0xbe122986	-0.14273652
131	0xbb8ef1b8	-0.004362311
132	0x3d6a9dd4	0.057279423
133	0xbd9018a5	-0.070359506
134	0xbdbe869d	-0.09303019
135	0xbea4a4fd	-0.32157126
136	0xbb73cfde	-0.0037202756
137	0xbd161137	-0.03663751
138	0x3c950677	0.01819156
139	0x3d4c0a3c	0.049814448
140	0x3cdbc250	0.026826054
141	0xbce3bc42	-0.02779973
142	0xbda6e30c	-0.081487745
143	0xbc51d855	-0.012807925
144	0xbc0c1d79	-0.008551949
145	0xbed40038	-0.41406417
146	0xbed2f28b	-0.4120067
147	0x3c77dad7	0.015127859
148	0x3ab26dda	0.0013613061
149	0x3daa8d2a	0.08327706
150	0xbe623a09	-0.22092451
151	0xbd6791a0	-0.056535363
152	0xbec135f1	-0.37736467
153	0xbd2580d0	-0.04040605
154	0x3dfc5293	0.12320437
155	0x3cfda64a	0.030963082
156	0xbdae2b18	-0.08504313
157	0x3ae0dcd5	0.0017155657
158	0xbdc2dbdd	-0.09514592
159	0xbdc7c032	-0.09753455
160	0x3dea8277	0.114506654
161	0xbe10fb75	-0.14158423
162	0xbe3d3834	-0.18478471
163	0x3a93a451	0.001126418
164	0x3cf0520c	0.029335998
165	0xbe7f5f5d	-0.24938722
166	0x3de2b5a5	0.11069802
167	0xbeb08630	-0.34477377
168	0x3e873839	0.26410082
169	0x3d717598	0.058950037
170	0xbecb89a8	-0.3975346
171	0x3c468c90	0.012118474
172	0x3bffe6f4	0.007809514
173	0xbdbafa1f	-0.09129738
174	0x3d589672	0.05287785
175	0x3d03a044	0.032135263
176	0xbeed74a6	-0.46378058
177	0xbd73bff3	-0.05950923
178	0x3da00c24	0.07814816
179	0xbbc93738	-0.006140616
180	0xbe8e196e	-0.27753776
181	0xbc826002	-0.01591492
182	0xbe6eff45	-0.23339565
183	0x3dc4b425	0.09604672
184	0xbdf67963	-0.120348714
185	0x3c447a37	0.011992029
186	0xbd285ff2	-0.041107126
187	0x3de3eb06	0.111288115
188	0x3df95791	0.12174905
189	0xbd571b41	-0.052516226
190	0x3d8fa319	0.0701353
191	0xbe8d6dcf	-0.2762284
192	0xbd783ac6	-0.060602926
193	0xbc9e5df6	-0.019331913
194	0x3dbe9680	0.09306049
195	0xbd16b327	-0.036791947
196	0x3d43b87e	0.047783367
197	0xbdd4f776	-0.10398762
198	0x3d326bea	0.043559946
199	0xbc552a9f	-0.01301065
200	0xbd89d8df	-0.06730818
201	0x3da0a214	0.07843414
202	0x3dba96aa	0.09110768
203	0xbd80e120	-0.06292939
204	0xbbe5818c	-0.0070039686
205	0xbe4467e5	-0.19180258
206	0x3dabbf54	0.08386102
207	0x3da9af23	0.08285358
208	0x3d887c1b	0.06664296
209	0x3d64d1c6	0.055864118
210	0x3bd1a402	0.006397725
211	0xbd143609	-0.036184344
212	0x3d2fb09a	0.04289303
213	0x3ba67641	0.005080015
214	0x3e420ebf	0.18950938
215	0xbd9ce837	-0.07661479
216	0x3d3ced13	0.04612453
217	0xbde9030a	-0.11377533
218	0xbec043c1	-0.37551692
219	0x3e3b67fa	0.18301383
220	0xbdb9462d	-0.09046588
221	0xbd4de932	-0.05027122
222	0x3db88d5b	0.090113364
223	0xbda926d7	-0.08259361
224	0x3db9a56d	0.090647556
225	0xbe70ab53	-0.23502855
226	0x3e3bf9e7	0.18357049
227	0x3d49b032	0.0492403
228	0x3e856c06	0.26058978
229	0xbe9daf6c	-0.307979
230	0x3cfdba14	0.030972518
231	0xbe2fa192	-0.17151478
232	0xbcc5e5c1	-0.024157407
233	0xbd270365	-0.04077472
234	0xbdb86dde	-0.090053305
235	0xbd8a0c63	-0.06740644
236	0xbe109744	-0.14120203
237	0x3e371f2a	0.17882982
238	0xbe88d328	-0.267236
239	0xbc5bfcfb	-0.013427014
240	0xbe74e327	-0.23914777
241	0x3e1614f5	0.14656432
242	0xbdae520f	-0.08511745
243	0xbe66673b	-0.22500317
244	0x3e68c153	0.22729997
245	0x3e53087a	0.20608702
246	0x3d7e77f2	0.062126108
247	0x3d1370ca	0.035996236
248	0xbeb3e31c	-0.35134208
249	0x3bf44769	0.007454802
250	0xbe8a26ff	-0.26982877
251	0x3d122c9c	0.035687074
252	0x3de60f0e	0.1123334
253	0xbdbf5b82	-0.093436256
254	0xbdf55dde	-0.11980794
255	0xbe8c4a6b	-0.27400526

linear1.bias f4 [84]
0	0x3abbcd59	0.0014328166
1	0x3e5aaea9	0.2135569
2	0x3e4b7bb1	0.19871403
3	0x3d21f648	0.039541513
4	0x3e08fa5c	0.13376755
5	0x3db0c748	0.0863176
6	0xbc53b6e7	-0.012922025
7	0xbccdb41d	-0.025110299
8	0x3e55beef	0.20873617
9	0x3c258cca	0.0101043675
10	0xbd02aa50	-0.031900704
11	0x3e4794e0	0.19490385
12	0x3d3318b9	0.04372475
13	0x3d43e470	0.047825277
14	0x3ca57c99	0.020201014
15	0x3db7e8eb	0.089799725
16	0xbd43085d	-0.047615398
17	0x3c3117c7	0.010808892
18	0x3c91eb97	0.017812533
19	0x3d061373	0.032733392
20	0xbc3ba1f4	-0.011452187
21	0x3e099ba2	0.13438275
22	0xbd4f547c	-0.05061768
23	0x3c622f7d	0.013805267
24	0xba77b6d8	-0.0009449548
25	0x3cd74b59	0.026281046
26	0x3c545347	0.012959308
27	0x3d95f703	0.07322504
28	0x3e0410cb	0.12897031
29	0x3d88c0e8	0.06677419
30	0x3e296052	0.1654065
31	0x3e2220d1	0.15832831
32	0x3e48635b	0.19569151
33	0x3e02e9f1	0.12784554
34	0x3dbc17f9	0.0918426
35	0x3dca2aaa	0.09871419
36	0xbd818eb7	-0.06326049
37	0xbd2d3403	-0.04228593
38	0xbbdecac7	-0.0067990753
39	0x3d805a6e	0.06267248
40	0x3cb5c55f	0.02218884
41	0x3e20e201	0.15711214
42	0x3e0566f2	0.13027552
43	0x3d201cb0	0.03908986
44	0x3dbbcddf	0.09170126
45	0x3e27b8fb	0.16379158
46	0xbcdf4d5b	-0.027258566
47	0x3d623dbb	0.055234652
48	0x3da75444	0.08170369
49	0xbdd8d819	-0.10588092
50	0xbdaa60d0	-0.08319247
51	0x3e6eb6ed	0.23311968
52	0x3d0fcd0f	0.03510767
53	0x3e02bdc8	0.12767708
54	0x3d0c1ea6	0.034208916
55	0x3d262b06	0.040568374
56	0xbdacc053	-0.084351204
57	0x3dddc0a6	0.108277604
58	0xbc77107b	-0.015079613
59	0xbd4d06ad	-0.050055195
60	0x3dc7caf0	0.09755504
61	0x3e52c333	0.20582275
62	0xbd863f0d	-0.06554995
63	0x3ddadfbb	0.106872045
64	0x3e6050ba	0.21905795
65	0x3c891ada	0.016736437
66	0xbd2c785d	-0.042106975
67	0x3e15990f	0.14609168
68	0x3be289ca	0.0069133984
69	0x3d1695cb	0.036763947
70	0xbc3c8b6d	-0.011507851
71	0x3d96038c	0.07324895
72	0x3c94f245	0.01818193
73	0xbc920c97	-0.017828269
74	0x3da255b8	0.07926506
75	0x3b92f39d	0.0044846074
76	0x3e04f29b	0.12983172
77	0xbcbdf9bb	-0.02319037
78	0x3d788552	0.06067402
79	0x3b80339e	0.0039124032
80	0xbd693a36	-0.05694028
81	0x3cfb8b7c	0.03070616
82	0x3d6d4894	0.057930544
83	0x3d8671c0	0.06564665

linear2.weight f4 [3, 84]
0	0x3e281d45	0.16417415
1	0xbe87298e	-0.2639889
2	0xbe948de3	-0.290145
3	0x3df55d03	0.11980631
4	0xbea8279c	-0.3284272
5	0x3e36cf86	0.17852601
6	0xbd458679	-0.048223946
7	0xbe03837f	-0.1284313
8	0xbe820f78	-0.25402427
9	0x3e24ab7a	0.16081038
10	0x3dddff31	0.108396895
11	0xbebc5dbf	-0.36790273
12	0xbd92c6b8	-0.07166809
13	0x3e36d5ea	0.17855039
14	0x3d873a8e	0.06602965
15	0x3e1b1752	0.15145615
16	0x3c920be8	0.017827943
17	0xbe6ad29e	-0.22931907
18	0xbd6d217c	-0.05789326
19	0x3e68d415	0.22737153
20	0xbdc27c3d	-0.09496353
21	0xbe9200bb	-0.28516182
22	0xbc2e6f0f	-0.010646596
23	0x3e832858	0.25616717
24	0x3e3763d1	0.1790917
25	0xbe9b80d1	-0.30371717
26	0x3d52fdb8	0.051511496
27	0xbde8a1f7	-0.11359017
28	0x3d75167f	0.059835907
29	0xbe5bb593	-0.21455984
30	0xbeadbdc2	-0.33933836
31	0xbeded5e2	-0.43522555
32	0xbe2ce093	-0.16882543
33	0xbe34af56	-0.1764501
34	0xbba939d1	-0.005164363
35	0xbe92fe17	-0.2870948
36	0x3e951b92	0.29122597
37	0xbdb426c7	-0.08796459
38	0x3e4c09b1	0.19925572
39	0xbdc87d8f	-0.097895734
40	0x3e07d3b7	0.13264357
41	0xbe14779c	-0.14498752
42	0xbdcdc30a	-0.100469664
43	0xbe6eb83d	-0.23312469
44	0xbe7f1870	-0.24911666
45	0xbea4baeb	-0.32173857
46	0x3e5d4e3f	0.2161188
47	0xbe6c2b04	-0.23063284
48	0x3dd4c9ea	0.103900746
49	0xbcc75293	-0.024331367
50	0x3e86b656	0.26310986
51	0xbeb34dea	-0.3502038
52	0x3e45b000	0.1930542
53	0xbeb5b63c	-0.35490596
54	0xbe3ea2dd	-0.18616815
55	0x3e41b710	0.18917489
56	0xbccf2f97	-0.025291247
57	0x3d9f20d6	0.07769935
58	0xbcf862e7	-0.030320598
59	0xbcd70682	-0.02624822
60	0xbe5d189a	-0.21591416
61	0xbebb94d0	-0.36636972
62	0x3dc2c8b5	0.09510938
63	0xbea5db87	-0.3239405
64	0xbeb8611f	-0.36011598
65	0x3e2b6846	0.16738996
66	0x3e71b2cc	0.23603362
67	0xbeb9201a	-0.36157304
68	0x3e466e86	0.19378099
69	0x3df87009	0.12130744
70	0x3e2b450b	0.16725557
71	0x3e4991eb	0.1968457
72	0x3d42cee3	0.047560584
73	0xbe7e2860	-0.2482009
74	0x3da3ba4c	0.07994518
75	0xbd4499b6	-0.047998153
76	0xbe6883cc	-0.22706527
77	0xbe9b744d	-0.30362168
78	0xbe895d99	-0.26829222
79	0x3dcfecdb	0.101525985
80	0x3e20e4a5	0.15712221
81	0x3e59af25	0.21258219
82	0x3de431c2	0.11142303
83	0xbe98091a	-0.29694444
84	0x3d01e4c5	0.031712312
85	0xbe34ec9f	-0.17668389
86	0xbe8e99c2	-0.27851683
87	0xbe38a177	-0.18030344
88	0x3e0d7f31	0.13818051
89	0xbe188dab	-0.14897792
90	0x3d199037	0.03749105
91	0xbddeef1d	-0.10885451
92	0xbe52a647	-0.20571242
93	0x3e0a9dd2	0.13536766
94	0x3df54b6a	0.11977275
95	0xbdc43a36	-0.09581415
96	0x3c2ea97e	0.010660527
97	0xbe965a45	-0.29365745
98	0x3dcc08c8	0.099626124
99	0xbe8d5b24	-0.27608597
100	0xbc324ca9	-0.010882535
101	0x3e6b1952	0.22958878
102	0x3e3fa785	0.18716247
103	0xbde43e96	-0.1114475
104	0xbc8425b4	-0.01613126
105	0x3e3af869	0.18258823
106	0x3dad5008	0.084625304
107	0xbe03f87a	-0.12887755
108	0xbd40aef9	-0.047041867
109	0x3ea7ce84	0.32774746
110	0x3e80450f	0.25052688
111	0x3e49db1a	0.19712487
112	0xbe63c4d0	-0.22243047
113	0x3e62665e	0.22109362
114	0xbe1b116c	-0.15143365
115	0xbb98f899	-0.004668307
116	0xbe7cebee	-0.24699375
117	0x3e1a57e1	0.15072586
118	0x3e6bb997	0.23020016
119	0x3e99be23	0.30027875
120	0xbe86088b	-0.26178393
121	0x3c24622e	0.0100331735
122	0xbe328ffb	-0.17437737
123	0xbe348ce9	-0.17631878
124	0x3e06abad	0.13151427
125	0xbeb5f0ac	-0.3553518
126	0x3e55687a	0.20840636
127	0xbd149a73	-0.036280107
128	0x3e513995	0.20432122
129	0xbe6c33a4	-0.23066574
130	0x3cad2947	0.021137847
131	0x3e9cf69f	0.30656907
132	0xbe9c5c64	-0.30539238
133	0x3c4a2040	0.012336791
134	0xbe3147a7	-0.1731249
135	0x3e566e58	0.2094053
136	0xbd5f0b79	-0.0544543
137	0x3e1df0b8	0.15423858
138	0x3ea71979	0.32636622
139	0xbc18136c	-0.009281974
140	0x3d9480aa	0.07251103
141	0xbe76e8b2	-0.24112204
142	0xbb2d70d6	-0.002646496
143	0xbd94f2f1	-0.072729
144	0xbe9b002e	-0.30273575
145	0xbe5cbf86	-0.21557435
146	0xbd370f25	-0.044692177
147	0x3dafc993	0.08583369
148	0xbe8b3b60	-0.27193737
149	0xbda55d8e	-0.08074485
150	0xbc6b5bd7	-0.014365158
151	0xbdfc480f	-0.123184316
152	0xbe059d28	-0.13048232
153	0xbe8012d8	-0.25014377
154	0xbe27706e	-0.16351482
155	0xbe78a184	-0.24280363
156	0x3d5d6420	0.054050565
157	0x3e6c110b	0.23053376
158	0x3e1970d3	0.14984445
159	0x3e0d16c0	0.1377821
160	0x3e879801	0.26483157
161	0x3eb2b845	0.34906211
162	0x3ea884c9	0.32913807
163	0xbd9807a9	-0.07423336
164	0x3d2204b2	0.03955526
165	0xbd8ea930	-0.06965864
166	0xbe2ea641	-0.17055608
167	0x3e80e2b3	0.25172958
168	0xbe73b0b8	-0.23797882
169	0x3efdf73c	0.49602687
170	0x3e9cf49d	0.30655375
171	0xbcf2e5ff	-0.029650686
172	0x3e5aebef	0.21379064
173	0x3dea507c	0.114411324
174	0x3d8f05bc	0.069835156
175	0x3e080335	0.13282473
176	0x3edd75cd	0.43253937
177	0xbe95db36	-0.29268807
178	0xbe92d8f0	-0.28681135
179	0x3ebc0563	0.3672286
180	0x3c23b739	0.009992414
181	0x3e02597b	0.12729447
182	0xbe8da389	-0.2766383
183	0x3e0a136f	0.13483976
184	0x3de6efb0	0.112761855
185	0xbe087c62	-0.13328698
186	0xbe94b1e5	-0.29041973
187	0xbddabaed	-0.106801845
188	0xbe574168	-0.21021044
189	0x3e84cee3	0.25939092
190	0x3c89bc44	0.016813405
191	0x3dc264db	0.09491893
192	0xbc716356	-0.014733156
193	0x3dd3a939	0.10335011
194	0xbe70b41c	-0.23506206
195	0xbe714a61	-0.2356353
196	0x3e14c389	0.14527716
197	0xbdd57607	-0.104229026
198	0x3eaa9d2b	0.33323035
199	0x3ea0b9f8	0.31391883
200	0x3e65ed8b	0.22453897
201	0xbe7a0ca1	-0.2441888
202	0xbcfa4d0a	-0.030554313
203	0xbe339fb2	-0.17541388
204	0xbd299bdb	-0.0414084
205	0xbdaee79b	-0.08540269
206	0x3da61040	0.08108568
207	0x3e2511e7	0.1612011
208	0xbe4c68c1	-0.19961835
209	0x3e831c7c	0.2560767
210	0xbe5bcc4c	-0.21464652
211	0x3e9b03fa	0.3027647
212	0xbe2ba4d3	-0.16762094
213	0x3eb5a5a0	0.35477924
214	0xbe22d0e4	-0.15899998
215	0xbd8d2d5c	-0.06893417
216	0x3d2b9574	0.041890576
217	0xbd8e28b7	-0.069413595
218	0xbe6cfd66	-0.23143539
219	0x3e96de22	0.2946635
220	0xbe77d26e	-0.24201366
221	0x3e23d974	0.1600092
222	0xbd5fd65b	-0.054647785
223	0xbe802a46	-0.25032252
224	0xbdad4052	-0.08459534
225	0x3dd17d38	0.10228962
226	0x3d6633f6	0.056201898
227	0x3c68e4ab	0.014214675
228	0x3ec5f595	0.38663927
229	0x3ecc73e8	0.3993218
230	0xbd1de5c0	-0.038549185
231	0x3e92c8d8	0.28668857
232	0x3ec18008	0.37792993
233	0xbe5e550c	-0.2171213
234	0xbe2f0ef8	-0.17095554
235	0x3eb50db1	0.35362008
236	0x3d1bbcf1	0.038021985
237	0x3cc099a2	0.023510758
238	0xbdcbc111	-0.09948934
239	0x3db7120c	0.08938989
240	0x3cb1af54	0.021690048
241	0xbe4891a5	-0.19586809
242	0xbe66f2ab	-0.22553508
243	0xbe61c4d1	-0.22047736
244	0xbe32e8e0	-0.17471647
245	0xbddf5057	-0.109039955
246	0xbe1b36fd	-0.15157695
247	0xbe79497d	-0.2434444
248	0xbe74972b	-0.23885791
249	0xbe321992	-0.17392567
250	0x3d7f71ea	0.062364496
251	0xbe716f71	-0.23577668

linear2.bias f4 [3]
0	0xbc670723	-0.014100823
1	0xbd4271e3	-0.047471892
2	0xbc0236cf	-0.007947638
