LeNet/LeNet_Without_Aug/LeNet.pth (torch, 247407 bytes, 10 tensors)

conv1.weight f4 [6, 1, 5, 5]
0	0x3e316d90	0.17326951
1	0x3d2a5634	0.041586116
2	0xbc0ee18d	-0.008720768
3	0xbc27745c	-0.010220613
4	0xbe09f42e	-0.13472053
5	0xbd9ddfc1	-0.07708693
6	0x3e03d131	0.12872769
7	0xbe299369	-0.16560139
8	0xbe34d38c	-0.17658824
9	0xbe6c90a9	-0.23102058
10	0xbd923ac4	-0.07140115
11	0x3dab6b4f	0.08370077
12	0x3e2f1b6e	0.17100307
13	0xbe45168e	-0.19246885
14	0x3ccad03d	0.024757499
15	0x3e4d216f	0.20032285
16	0xbdbf2b79	-0.093344636
17	0x3db29164	0.08719137
18	0x3e0ac575	0.13551886
19	0x3e842085	0.2580606
20	0xbe00aa8e	-0.12565061
21	0xbe1fe096	-0.15613016
22	0x3d73f10e	0.05955606
23	0x3e1a4067	0.1506363
24	0xbb291cf6	-0.0025804616
25	0x3ddd7bb9	0.10814614
26	0x3dac08c5	0.0840011
27	0x3e03ff85	0.12890442
28	0xbe0ecb59	-0.13944758
29	0x3d4e26fa	0.05033014
30	0xbd627ffe	-0.055297844
31	0xbd6b8484	-0.057499424
32	0xbdea396a	-0.11436732
33	0xbd61d19e	-0.055131547
34	0xbcf9c246	-0.030488145
35	0xbe10d82f	-0.14144967
36	0xbd9e2dc6	-0.07723574
37	0xbe311a0d	-0.17295094
38	0x3d7a9217	0.06117448
39	0x3dee5d75	0.11638919
40	0xbe0f426b	-0.1399018
41	0x3dccbb51	0.09996665
42	0xbd796dd4	-0.060895756
43	0x3d8c56c5	0.068524875
44	0x3c5ae727	0.013360775
45	0xbdcaecac	-0.09908423
46	0xbe3d017b	-0.18457596
47	0xbd946e31	-0.0724758
48	0x3e54e9e2	0.20792344
49	0x3e390995	0.18070062
50	0xbddec0ac	-0.10876593
51	0xbe1f0710	-0.15530038
52	0xbd1825fd	-0.037145603
53	0xbe1f87f7	-0.1557921
54	0x3cb103c1	0.021608235
55	0xbd0f38db	-0.03496633
56	0xbe722a70	-0.23649001
57	0xbdc93874	-0.09825221
58	0xbdb8cd72	-0.090235606
59	0xbe3b6dbb	-0.18303578
60	0xbcc5371b	-0.024074128
61	0x3db7dfa2	0.089782014
62	0x3c61e976	0.013788572
63	0xbd60f11e	-0.054917447
64	0xbdddd4e8	-0.10831624
65	0xbe2b9a26	-0.16758022
66	0xbd2c7423	-0.042102944
67	0x3d3fcbd9	0.046825264
68	0xbda66878	-0.081253946
69	0xbdeeff34	-0.1166977
70	0x3d519a78	0.051172704
71	0x3db19b81	0.08672238
72	0x3d6f3163	0.05839671
73	0x3e42eccf	0.19035648
74	0x3e02cf48	0.12774384
75	0x3e6762a5	0.22596224
76	0x3d6d58b3	0.05794592
77	0x3d5c32b7	0.053759303
78	0xbd8bf147	-0.068331294
79	0x3cd78882	0.02631021
80	0x3e5a99ab	0.21347682
81	0x3e652b96	0.22379908
82	0x3da91aa3	0.08257034
83	0x3e4c6347	0.19959746
84	0x3d6c238a	0.05765108
85	0x3e0c7dbc	0.13719839
86	0xbc94c057	-0.018158121
87	0x3e350fd7	0.17681824
88	0xbdbced2d	-0.09224925
89	0x3cd17b63	0.02557153
90	0xbdfab5d4	-0.12241712
91	0x3d4fe597	0.050756063
92	0xbd1a37be	-0.037650816
93	0x3d65d49c	0.056110963
94	0xbc58112c	-0.013187688
95	0x3cf946aa	0.030429203
96	0xbe73b06d	-0.2379777
97	0x3dcd023d	0.100101925
98	0x3dc55367	0.09635048
99	0xbe8332db	-0.25624737
100	0xbd129fb2	-0.03579683
101	0xbe1a0e71	-0.15044571
102	0x3e3ae1db	0.1825022
103	0x3d80431a	0.062627986
104	0x3de73319	0.11289043
105	0xbd977b7b	-0.07396599
106	0x3ddbdcdd	0.10735486
107	0x3dfa639b	0.122260295
108	0x3d64c163	0.05584849
109	0xbdbfe57b	-0.09369942
110	0xbdc0ccd5	-0.094140686
111	0x3d19df59	0.037566517
112	0x3e1c1b70	0.15244842
113	0x3df5879b	0.11988755
114	0xbdef64a1	-0.11689115
115	0x3cd980b3	0.026550626
116	0xbdb5aec5	-0.08871225
117	0x3d5a279f	0.053260442
118	0x3c9b3fa1	0.018951239
119	0xbe5a43d0	-0.21314931
120	0xbdf9cfe7	-0.12197857
121	0x3e187010	0.14886498
122	0xbd3ab886	-0.04558613
123	0x3dfd359f	0.12363743
124	0xbe16f480	-0.14741707
125	0x3d5ecd7d	0.054395188
126	0xbe5e2066	-0.21692047
127	0xbcce56ef	-0.025187938
128	0x3db0800b	0.08618172
129	0xbe2274c2	-0.15864852
130	0x3c4eaaf4	0.012614001
131	0x3d869af6	0.06572525
132	0x3e295d49	0.16539492
133	0xbd784e63	-0.06062163
134	0xbe535a83	-0.20639996
135	0x3e01b7dd	0.12667795
136	0x3cbcfdfb	0.023070326
137	0x3e4e2822	0.20132497
138	0xbe4455f4	-0.19173414
139	0xbe5a716e	-0.21332332
140	0x3e1f822c	0.15577
141	0x3d9ad136	0.07559435
142	0x3e05aaf6	0.13053498
143	0x3d4ce4f3	0.05002303
144	0xbdc448b6	-0.09584181
145	0x3e65f6a4	0.22457367
146	0xbe14766e	-0.14498302
147	0x3d19121c	0.037370786
148	0x3dc72485	0.097237624
149	0xbe2c051f	-0.16798829

conv1.bias f4 [6]
0	0xbd8c8b79	-0.0686254
1	0xbd95a56d	-0.07306943
2	0xbe626902	-0.2211037
3	0xbb02e5cf	-0.0019973402
4	0xbdb6d579	-0.089274354
5	0x3cabeb87	0.020986332

conv2.weight f4 [16, 6, 5, 5]
0	0x3e106298	0.1410011
1	0x3dd18a59	0.10231466
2	0x3e239d63	0.15978007
3	0x3c3b8126	0.011444366
4	0xbc2b2f60	-0.010448307
5	0x3e2f076c	0.17092675
6	0x3e35f478	0.17769039
7	0x3e85c1e4	0.2612449
8	0x3e813a33	0.25239715
9	0x3e66edcb	0.22551648
10	0x3d67c2ee	0.056582384
11	0x3d9e99d8	0.07744187
12	0x3dec36d1	0.11533893
13	0x3e5a23a0	0.21302652
14	0x3d49b93d	0.049248923
15	0x3dc1d7c6	0.09464984
16	0x3d865ca1	0.06560636
17	0x3d412b72	0.047160573
18	0x3d5dc1b2	0.0541398
19	0xbd8e9edb	-0.06963893
20	0x3e012db0	0.12615085
21	0x3d851cf5	0.06499664
22	0x3d21a017	0.039459314
23	0x3dc7d22b	0.09756883
24	0x3d40acba	0.047039725
25	0xbd8bd484	-0.068276435
26	0x3c9ca111	0.019119771
27	0xba5c080a	-0.0008393532
28	0x3e10066a	0.14064947
29	0x3e132eef	0.14373372
30	0xbddfa3f0	-0.109199405
31	0xbd19397e	-0.037408344
32	0x3c92075a	0.017825771
33	0x3c872dc3	0.016501313
34	0x3cf01840	0.029308438
35	0xbe0ec351	-0.13941695
36	0xbda883a5	-0.08228234
37	0xbc79e2cd	-0.015251827
38	0x3d661df6	0.056180917
39	0x3d1f62f6	0.038912736
40	0xbd2f7262	-0.042833693
41	0xbde0fbd3	-0.10985532
42	0xbd9ab236	-0.07553522
43	0x3b1fd642	0.0024389182
44	0x3db077a0	0.08616567
45	0x3a242e9c	0.0006263049
46	0xbe02e86a	-0.12783971
47	0xbd7230f3	-0.059128713
48	0x3dcf3d68	0.10119134
49	0x3d6da69b	0.058020215
50	0xbd35cda7	-0.04438558
51	0x3cdc5c0e	0.026899364
52	0x3ddcde94	0.10784641
53	0xbd148311	-0.036257807
54	0x3dd60380	0.10449886
55	0x3ca83f67	0.020538045
56	0xbca9c5df	-0.020724235
57	0x3df2061e	0.11817573
58	0x3dbdfce4	0.09276751
59	0x3dae8c01	0.085227974
60	0x3d6c5dfb	0.057706814
61	0xbd74e5e9	-0.059789572
62	0xbd28d6e3	-0.041220557
63	0xbda460c2	-0.080262676
64	0x3d9588d8	0.073014915
65	0xbd1a9c7d	-0.037746895
66	0xbda53f57	-0.08068722
67	0xbd91c0b9	-0.07116837
68	0xbdb858fd	-0.09001348
69	0xbd766cce	-0.060162358
70	0xbdc8c148	-0.098024905
71	0x3ce5bf76	0.028045397
72	0x3d1778cb	0.03698043
73	0x3d132332	0.035922237
74	0x3cad62b0	0.021165222
75	0xbddf2015	-0.10894791
76	0xbd83ccc4	-0.0643554
77	0xbdfd5e8a	-0.123715475
78	0xbd528a39	-0.05140135
79	0xbd84a363	-0.06476476
80	0xbcfdae07	-0.030966772
81	0xbd46bb80	-0.048518658
82	0x3c960987	0.01831509
83	0xbd169ede	-0.0367726
84	0xbdd7dd2b	-0.10540231
85	0x3e018075	0.12646659
86	0x3dbc1aed	0.09184823
87	0xbc044aad	-0.008074445
88	0xbd73b9cb	-0.059503358
89	0x3d4bb098	0.04972896
90	0x3cbf4fa8	0.023353413
91	0x3cd339cf	0.025784401
92	0xbc689060	-0.014194578
93	0xbdc41e08	-0.095760405
94	0x3b099ed2	0.0020999205
95	0xbd8ce2b1	-0.068791755
96	0xbcaf8b82	-0.021428827
97	0xbcd23f0e	-0.025664832
98	0xbdc25ad2	-0.09489979
99	0xbcca29e8	-0.024678186
100	0xbd628191	-0.055299345
101	0xbd692f1f	-0.056929704
102	0x3c8f52a5	0.017495463
103	0xbb488956	-0.0030599437
104	0xbc6f2131	-0.014595316
105	0xbca3407c	-0.01992821
106	0xbd88a19f	-0.06671452
107	0xbc30b64b	-0.0107856495
108	0xbbd8d24d	-0.0066168667
109	0xbc414b62	-0.011797758
110	0xbc89afbd	-0.016807431
111	0x3cc9c9b3	0.02463231
112	0xbd2ffc3d	-0.042965163
113	0x3e0c65c2	0.13710693
114	0x3ded6045	0.115906276
115	0xbd50d1a2	-0.05098117
116	0xbdc86857	-0.09785526
117	0xbd3f5306	-0.046710037
118	0xbcc88149	-0.02447571
119	0x3de67143	0.11252072
120	0xbbc26bd7	-0.0059332657
121	0xbcb16079	-0.021652447
122	0xbce08c6d	-0.02741071
123	0xbd3277cc	-0.04357128
124	0x39b46e1e	0.0003441432
125	0x3d515965	0.051110644
126	0xbdf1d653	-0.11808457
127	0xbe0ba370	-0.13636565
128	0x3d4fef28	0.050765187
129	0xbd0c2a27	-0.034219887
130	0x3d3ba4be	0.045811407
131	0x3dd3a9ad	0.103350975
132	0x3db3e19e	0.087832674
133	0xb977e1e5	-0.00023639908
134	0xbc2ae273	-0.010429966
135	0x3d8c400c	0.068481535
136	0xbd1d83c5	-0.038455743
137	0x3d0c7898	0.034294695
138	0xbc1e8417	-0.009675047
139	0x3d2bede1	0.041974906
140	0xbd29d330	-0.04146117
141	0x3e03d937	0.1287583
142	0x3d9eb743	0.07749798
143	0xbd39fc9b	-0.04540692
144	0x3de39547	0.11112457
145	0x3d236e6f	0.03990024
146	0x3db2e558	0.0873515
147	0x3dcc4b39	0.09975285
148	0x3cb94612	0.02261642
149	0x3d914c92	0.07094683
150	0x3e5a29cd	0.21305008
151	0x3e2cae84	0.16863447
152	0x3e74cba9	0.23905815
153	0x3e5c722b	0.21527927
154	0x3e17de18	0.14830816
155	0x3db378ca	0.08763273
156	0x3e9a3b3b	0.30123314
157	0x3eb7ba83	0.35884485
158	0x3e98c406	0.29837054
159	0x3e691fcc	0.22766036
160	0xbc1bd69b	-0.009511615
161	0x3dcff57b	0.101542436
162	0x3e3d1a5a	0.18467084
163	0x3e171d10	0.1475718
164	0x3e44ccd5	0.19218762
165	0x3c8373ed	0.016046489
166	0xbd45df5e	-0.048308723
167	0xbd5692b7	-0.052386012
168	0x3d4eb559	0.050465915
169	0x3dcdc5a9	0.10047466
170	0x3e860d5b	0.26182064
171	0x3df07289	0.11740596
172	0x3dfc062b	0.12305864
173	0x3be298f6	0.006915207
174	0x3e238ec0	0.15972424
175	0x3d21cdab	0.03950278
176	0x3d9b0c07	0.075706534
177	0xbc0fa386	-0.008767014
178	0xbd202dc4	-0.039106146
179	0xbc690463	-0.014222237
180	0x3d29a5e1	0.04141796
181	0x3dacb582	0.08433057
182	0x3ca671b9	0.020317899
183	0xbc0f00f0	-0.008728251
184	0xbcab3872	-0.020900939
185	0xbd09da47	-0.03365543
186	0xbd794fe8	-0.06086722
187	0xbda6f660	-0.08152461
188	0x3d8adcaa	0.067803696
189	0x3dc96623	0.09833934
190	0xbc90aa82	-0.01765943
191	0xbc0169c1	-0.007898749
192	0xbd9a1af8	-0.07524675
193	0x3ccfad89	0.025351303
194	0x3dc961fc	0.09833142
195	0xbd802871	-0.062577136
196	0xbde2f2ac	-0.11081442
197	0xbd766168	-0.060151488
198	0x3b1e32f0	0.0024139248
199	0xbda69cf8	-0.08135408
200	0xbc9b02c0	-0.01892221
201	0x3c09c99a	0.008409882
202	0x3cfccdca	0.030859847
203	0xbc7f9436	-0.015599301
204	0x3ca87d74	0.020567633
205	0xbc3447d9	-0.011003458
206	0xbdc15f03	-0.0944195
207	0xbd387fd1	-0.04504377
208	0xbbebfe0b	-0.007201915
209	0xbc532bc6	-0.012888854
210	0xbc9f305a	-0.019432236
211	0x3cb00d7e	0.021490809
212	0xbda7955b	-0.08182784
213	0xbe015a7f	-0.12632178
214	0xbdc9a1ff	-0.098453514
215	0x3dfa92c5	0.12235025
216	0x3db197f2	0.086715594
217	0x3dc3696b	0.09541591
218	0xbd7ec219	-0.062196825
219	0xbd4fdef0	-0.05074972
220	0x3c05ae39	0.008159214
221	0xbb5dbea6	-0.003383556
222	0x3c8d6699	0.017260836
223	0xbd39b711	-0.0453406
224	0x3d64351b	0.055714708
225	0xbda06a1e	-0.0783274
226	0xbc209fe7	-0.009803749
227	0xbd9e64fe	-0.077341065
228	0xbd059360	-0.03261125
229	0xbd615d81	-0.055020813
230	0xbdaf8c76	-0.08571713
231	0xbd8bd18d	-0.06827078
232	0xbd3f53c8	-0.04671076
233	0x3d73822e	0.05945032
234	0x3c6a2931	0.014292047
235	0x3b8a05ec	0.0042121317
236	0xbbb92ed1	-0.005651333
237	0x3cd30628	0.025759771
238	0x3d762d97	0.06010207
239	0xba72dddb	-0.00092646264
240	0x3dcfd9e9	0.10148985
241	0x3d9c9a49	0.07646615
242	0x3da05a99	0.0782978
243	0x3ddfcb2c	0.10927424
244	0x3dcb6129	0.09930641
245	0xbd11d6a0	-0.035605073
246	0x3cc7b40c	0.024377845
247	0xbcae195a	-0.021252323
248	0xbcfed38f	-0.031106738
249	0x3ceb0a68	0.028691486
250	0xbd9d8985	-0.076922454
251	0x3c86e49b	0.01646643
252	0xbdd185a7	-0.1023057
253	0x3d78d691	0.0607515
254	0xbd274d4b	-0.040845197
255	0xbcf5ad17	-0.029989762

conv2.bias f4 [16]
0	0x3d976f09	0.07394225
1	0x3cf760e9	0.030197578
2	0xbdb038d3	-0.08604588
3	0xbd912159	-0.07086439
4	0x3d589511	0.052876536
5	0xbc7f03bf	-0.015564858
6	0xbdbc9ebd	-0.092099644
7	0x3da5c6ed	0.08094583
8	0x3b96e672	0.004605108
9	0x3de2c5c9	0.11072881
10	0xbc9f9fc6	-0.019485366
11	0xbde33e30	-0.11095846
12	0x3afcdc27	0.0019291685
13	0xbc52596b	-0.012838702
14	0xbd192eaa	-0.037398018
15	0x3c32bc75	0.0109091895

conv3.weight f4 [120, 16, 5, 5]
0	0xbd1e9b3b	-0.038722258
1	0xbb05acc2	-0.002039716
2	0xbd5c6c68	-0.05381432
3	0xbc0d7851	-0.008634643
4	0x3bedea77	0.0072606164
5	0xbd56c5d8	-0.052434772
6	0xbcb7b2c2	-0.022424106
7	0x3ca08506	0.01959468
8	0xbbb99fc3	-0.005664797
9	0x3a3387af	0.00068485265
10	0xbc09df0a	-0.008414993
11	0x3d2cb6f5	0.04216667
12	0xbd4f2530	-0.050572574
13	0x3d295e68	0.0413498
14	0x3baaf3c6	0.0052170483
15	0xbd5124b8	-0.05106041
16	0x3d3310c3	0.043717157
17	0xbd2c738a	-0.042102374
18	0xbadf92b6	-0.0017057273
19	0x3cf0731b	0.029351762
20	0x3bc4ad10	0.006002076
21	0x3c22b07c	0.0099297725
22	0x3c850616	0.016238254
23	0x3b48e203	0.0030652292
24	0x3bde437a	0.006782946
25	0x3c3a7ab9	0.011381798
26	0xbbbb3e02	-0.005714179
27	0xbc460613	-0.012086409
28	0x3a9f0477	0.0012132068
29	0x3c5cde91	0.013480798
30	0xbcea1f89	-0.02857949
31	0xbc778534	-0.015107442
32	0xbd39b758	-0.045340866
33	0x3c958574	0.018252112
34	0x3c88edbc	0.016714923
35	0x3d11550e	0.035481505
36	0xbc1e9d0d	-0.0096809985
37	0x3c31ec2f	0.010859533
38	0xbd562345	-0.05227973
39	0xbd5b5cc3	-0.05355526
40	0xbc3731af	-0.011181279
41	0x3c771377	0.015080324
42	0x3c10812f	0.008819862
43	0xbd081c23	-0.03322996
44	0x3d0c03ca	0.0341833
45	0xbc683b0e	-0.014174236
46	0x3c13dd7d	0.009024975
47	0x3d2bb0cc	0.041916654
48	0x39100f41	0.00013738593
49	0x3c81422a	0.01577862
50	0x3c683747	0.014173335
51	0xbd11d638	-0.035604686
52	0x3cebdac3	0.028790837
53	0xba3a1f33	-0.0007099986
54	0xbd30f997	-0.043206777
55	0x3c479a47	0.012182779
56	0xbd2d0b7b	-0.042247277
57	0x3d3a1cf2	0.04543776
58	0x3d18b4f5	0.03728195
59	0xbc99d790	-0.018779546
60	0xbd35ede0	-0.04441631
61	0x3bcc6c40	0.0062384903
62	0x3c50dfa7	0.012748635
63	0xbd261e72	-0.04055638
64	0xbca9e5c3	-0.020739442
65	0x3d1324cf	0.035923775
66	0xbd0f93a0	-0.035052896
67	0x3cc38ed0	0.02387181
68	0xbd096f2f	-0.0335533
69	0xbcb5d1aa	-0.022194702
70	0x3d02f1cb	0.031968873
71	0xbbfb015a	-0.007660073
72	0xbd3f1d22	-0.046658643
73	0xbc517d5a	-0.012786234
74	0x3ca7e14d	0.020493174
75	0xbd0c74e4	-0.034291163
76	0xbd3cb745	-0.046073217
77	0x3cc18d79	0.02362703
78	0xbd28e544	-0.04123427
79	0xbb733321	-0.0037109333
80	0xbccf6cd0	-0.02532044
81	0x3d013396	0.031543337
82	0xbc3cb4c5	-0.011517708
83	0xbd62c55f	-0.05536401
84	0x3cd041aa	0.025421936
85	0x3c197211	0.009365574
86	0x3ca9ccd8	0.02072756
87	0xbcb60e56	-0.022223633
88	0xbb08f100	-0.00208956
89	0xbcc7520e	-0.024331119
90	0x3cdccb30	0.026952356
91	0x3b87fccd	0.0041500092
92	0xbc8ccab3	-0.017186498
93	0x3bd12cc0	0.0063835084
94	0xbd1a7f72	-0.037719198
95	0x3ca984e0	0.020693243
96	0x3cfe98da	0.031078745
97	0xbc6a841a	-0.014313722
98	0x3d4bc513	0.04974849
99	0xbcf28e13	-0.029608762
100	0xbd0ec7dc	-0.03485857
101	0xbd014196	-0.03155669
102	0xbd226f4e	-0.03965693
103	0xbd1b59de	-0.0379275
104	0x3c149729	0.0090692425
105	0x3cff121b	0.031136563
106	0x3c6eca37	0.014574579
107	0xbd5a9b3d	-0.053370703
108	0x3cbe9232	0.02326307
109	0x3d27e074	0.04098554
110	0x3cade6e9	0.02122827
111	0xbd227aca	-0.039667882
112	0x3d336db2	0.043805785
113	0x3bcb0e5c	0.00619678
114	0xbd63a50e	-0.05557733
115	0xbc4c7481	-0.012478949
116	0xbcd2ebfb	-0.02574729
117	0xbd54b206	-0.05192759
118	0x3c70553f	0.014668762
119	0xbb31e020	-0.0027141646
120	0xbd59ecf7	-0.053204503
121	0x3c3ac04a	0.011398384
122	0xbcf46047	-0.029831065
123	0xbd2168db	-0.03940664
124	0xbd2ce903	-0.042214405
125	0x3d095748	0.033530504
126	0x3bd0bda0	0.0063702613
127	0x3c2d4215	0.010574837
128	0xbd4f92ca	-0.0506771
129	0x3cba0285	0.02270628
130	0x3cb5dd72	0.02220032
131	0x3cc3db66	0.023908328
132	0x3cd97656	0.026545685
133	0x3c32a45b	0.010903443
134	0xbc29b01b	-0.010356928
135	0x3b624834	0.00345279
136	0xbc18e6c4	-0.009332363
137	0xbd1cfea2	-0.038328774
138	0xbd3c9b71	-0.046046678
139	0x3cd36e74	0.025809504
140	0xbd390c04	-0.045177475
141	0xbd21ae7d	-0.039473046
142	0x3bab54fb	0.0052286363
143	0x3c925671	0.017863484
144	0x3ab92564	0.0014125523
145	0xbd5bc902	-0.053658493
146	0xbb85e222	-0.004085795
147	0xbd128b3c	-0.035777315
148	0xbd169753	-0.036765408
149	0x3ca60d06	0.020269882
150	0xbcf9e877	-0.030506356
151	0xbd3f7b65	-0.046748538
152	0x3cee87b7	0.029117448
153	0x3d037915	0.032097895
154	0x3d23101f	0.039810296
155	0x3cad97bd	0.021190519
156	0xbce97340	-0.028497338
157	0x3c21d173	0.009876597
158	0x3d40b6d3	0.047049355
159	0xbd1f8efa	-0.038954712
160	0x3ce240f0	0.027618855
161	0x3d00dfdd	0.031463493
162	0x3c86dd87	0.016463054
163	0xbc732887	-0.014841205
164	0xbcb235d0	-0.021754175
165	0x3cdbd7b0	0.026836246
166	0x3ca50f0a	0.020148773
167	0xbd423e70	-0.047422826
168	0x3d3b571f	0.045737382
169	0x3ca616d3	0.020274555
170	0xbd2d8802	-0.042366035
171	0x3d3b6afb	0.04575632
172	0xbc91442b	-0.0177327
173	0xbc103a6f	-0.008802994
174	0x3d1b406c	0.037903234
175	0xbc9afd15	-0.018919507
176	0xbc85d930	-0.016338915
177	0xbc3fcf80	-0.011707187
178	0xbc7407ca	-0.014894435
179	0xbd011343	-0.03151251
180	0xbd5a849f	-0.053349134
181	0x3cd65fed	0.026168788
182	0x3d2c8f41	0.042128805
183	0xbd205126	-0.03913989
184	0x3cab5cca	0.020918269
185	0xbd1d38e3	-0.03838433
186	0xbd008863	-0.03138007
187	0x3c927cb8	0.017881736
188	0x3ccd6061	0.025070371
189	0x3c3d729e	0.011562971
190	0x3bd0f9e6	0.0063774465
191	0xbd46dda5	-0.04855122
192	0x3bd7c804	0.006585123
193	0xbcf89be3	-0.03034777
194	0xbd27df8f	-0.040984686
195	0x3c5ffd7d	0.013671276
196	0x3c7daf90	0.015483752
197	0xbb2ef53c	-0.0026696464
198	0xbd653fc8	-0.05596903
199	0x3d0f2148	0.03494385
200	0xbd5e5b8b	-0.05428652
201	0xbd63c62e	-0.05560892
202	0xbcbb8267	-0.02288933
203	0x3cccac98	0.024984643
204	0x3b3155a3	0.00270591
205	0x3cbb1e2f	0.022841541
206	0xbaf42fa7	-0.0018629924
207	0xbcf3a64b	-0.02974238
208	0xbd165b94	-0.03670843
209	0xbd314caf	-0.04328602
210	0xbd3c54a2	-0.04597915
211	0xbcca63d4	-0.024705805
212	0xbd3c8d32	-0.04603309
213	0xbd1fc26a	-0.039003767
214	0xbc11a251	-0.008888797
215	0x3cacc312	0.02108911
216	0xbd47bf7f	-0.04876661
217	0x3c8e55ae	0.01737484
218	0xbd20457f	-0.039128777
219	0xbbf33fb1	-0.007423364
220	0xbbf2bdeb	-0.007407894
221	0xbcbaba5e	-0.022793945
222	0xbd1c4f0d	-0.038161326
223	0x3c37ee18	0.0112262
224	0x3d2e701f	0.042587396
225	0xbd22ce6e	-0.039747648
226	0x3bf8a22a	0.007587691
227	0xbcc21a17	-0.023694081
228	0xbd2a6e31	-0.041608993
229	0xbc0d0045	-0.008606021
230	0xbc5c9e0f	-0.0134654185
231	0xbcf6eb3a	-0.030141462
232	0x3a5e8f25	0.0008489958
233	0xbb966df3	-0.0045907437
234	0xbd087975	-0.033318955
235	0xbc489637	-0.012242845
236	0xbc045b34	-0.008078385
237	0xbc850db8	-0.016241893
238	0x3d24252b	0.04007451
239	0x3bf568a7	0.007489282
240	0xbb9b7e40	-0.004745275
241	0x3b9c00d6	0.004760842
242	0xbd2ae6b4	-0.041723922
243	0x3ceba689	0.028765934
244	0xbb620762	-0.0034489264
245	0x3d134817	0.035957422
246	0xbca45a12	-0.02006248
247	0x3cb03ff2	0.021514867
248	0xbce1539c	-0.027505688
249	0xbd05236e	-0.03250449
250	0xbd0510c2	-0.032486685
251	0xbd1383e4	-0.036014453
252	0x3ba42fed	0.005010596
253	0x3cf059cc	0.029339693
254	0x3ce9b561	0.028528871
255	0xbd3357f4	-0.04378505

conv3.bias f4 [120]
0	0x3b0c1609	0.0021375439
1	0x3a7478ab	0.0009325842
2	0xbd7e194c	-0.062035844
3	0xbd5fd7e9	-0.054649267
4	0x3ce9b110	0.028526813
5	0x3c2250b9	0.009906941
6	0xbcf44467	-0.029817773
7	0xbc8852a6	-0.016640972
8	0x3c82b020	0.015953124
9	0x3cd1731c	0.025567584
10	0xbca34c7a	-0.019933928
11	0xba133b1e	-0.0005616414
12	0xbd321eeb	-0.043486517
13	0x3cd9cca7	0.026586844
14	0x3d314530	0.043278873
15	0x3c640d96	0.013919255
16	0xbcb0f8ac	-0.021602951
17	0x3db5a960	0.08870196
18	0xbd3b7ddd	-0.04577433
19	0x3be6598f	0.007029719
20	0x3c6d4b4c	0.014483284
21	0xbc79cd4a	-0.015246699
22	0x3c19fcc2	0.009398641
23	0x3b8dfee3	0.0043333634
24	0xbd5b42e0	-0.053530574
25	0xbbf65371	-0.007517271
26	0x3d027e6b	0.031858843
27	0x3cb3269c	0.021868996
28	0xbd88c5db	-0.06678363
29	0x3d1c2a6a	0.038126387
30	0x3d10a41d	0.03531276
31	0xbcce7a30	-0.025204748
32	0x3d2e7da4	0.04260029
33	0xbd3977f0	-0.045280397
34	0xbd99e9a0	-0.075152636
35	0xbbfb6475	-0.0076718875
36	0xbd013bea	-0.03155128
37	0x3ceb7f70	0.02874729
38	0xbd9a9586	-0.075480506
39	0x3b0e0d5c	0.0021675443
40	0xbd27dfb3	-0.04098482
41	0x3cef1402	0.029184345
42	0x3cf7add1	0.03023425
43	0xba5b7a5d	-0.00083724206
44	0xbcc69353	-0.024240172
45	0xbb2d1c54	-0.002641459
46	0xbd2c6af5	-0.04209419
47	0xbcad4d57	-0.021155043
48	0x3cca0384	0.02465988
49	0xbd8d9ed6	-0.06915061
50	0x3bf5773a	0.0074910196
51	0x3ccea654	0.025225796
52	0xbd0db766	-0.03459873
53	0xbc831221	-0.015999855
54	0xbb3a722e	-0.0028449404
55	0x3c88288e	0.0166209
56	0xbce55a3d	-0.02799713
57	0xbd206c5d	-0.039165843
58	0xbd0bbe09	-0.03411678
59	0xbd0c3341	-0.034228567
60	0xbd490963	-0.049081217
61	0x3b869772	0.004107409
62	0xbbe5820e	-0.007004029
63	0x3c074d6f	0.008258208
64	0x3cd8b1e8	0.02645202
65	0xbd1f28eb	-0.03885738
66	0x3b711b8b	0.0036790099
67	0xbc7321f8	-0.014839642
68	0xbd47e454	-0.048801735
69	0xbcd2ce9c	-0.025733285
70	0xbc7a05d4	-0.015260179
71	0x3ca6c7d5	0.02035896
72	0xbcf66e76	-0.030081969
73	0x3c232525	0.009957586
74	0xbc10b35e	-0.008831827
75	0x3d41079b	0.047126394
76	0x3d09d03f	0.033645865
77	0xbdd1416c	-0.10217556
78	0xbc38b143	-0.011272731
79	0xbb1343d9	-0.002247086
80	0xbc07fad9	-0.008299553
81	0xbd2c5619	-0.042074297
82	0xbd8d29e6	-0.06892757
83	0xbd1ff710	-0.039053977
84	0xbcc99d40	-0.024611115
85	0xbc955456	-0.018228691
86	0x3c6384fe	0.013886688
87	0xbd2c3887	-0.042046096
88	0x3b200d34	0.0024421932
89	0xbd84a6d8	-0.064771354
90	0x3cec5be7	0.028852416
91	0xbd351dfa	-0.04421804
92	0xbc14a460	-0.009072393
93	0xbc8580b2	-0.016296718
94	0x3cfc57aa	0.03080352
95	0x3d079320	0.033099294
96	0x3d2668fd	0.04062747
97	0x3d64c511	0.055852
98	0xbc1b2322	-0.0094688255
99	0xbbdb4f76	-0.006692822
100	0x3cfe3da4	0.031035252
101	0x3d4fbb26	0.050715588
102	0xbcee6813	-0.02910236
103	0xbd013629	-0.03154579
104	0xbc3c29f9	-0.011484616
105	0xbc8bc4f9	-0.017061697
106	0xbc32d310	-0.010914579
107	0x3d272952	0.04081089
108	0xbccb325d	-0.024804289
109	0xbd92fcdb	-0.071771346
110	0x3c80b506	0.015711319
111	0xbcc5e2ef	-0.024156062
112	0xbcc0edff	-0.023550985
113	0xbbd8b66f	-0.0066135447
114	0x3c98e11a	0.018662024
115	0x3c249d16	0.010047218
116	0xbca1ad6b	-0.019736012
117	0x3b8dc473	0.004326397
118	0x3c967fa8	0.018371418
119	0x3d07dd15	0.033169825

linear1.weight f4 [84, 120]
0	0xbd1a205e	-0.037628524
1	0x3d18e4f1	0.03732771
2	0x3e1f2976	0.1554316
3	0x3d7998f7	0.060936894
4	0x3d01ba7e	0.031671993
5	0x3e6290c9	0.22125544
6	0xbdaf5746	-0.08561568
7	0xbdc1d5ab	-0.09464582
8	0xbd0af627	-0.033926155
9	0x3c394f64	0.011310432
10	0xbc98e84f	-0.01866546
11	0x3d273e68	0.040831
12	0x3e384615	0.17995484
13	0x3c6fb565	0.01463065
14	0x3e4193d2	0.18904045
15	0x3c9da878	0.019245371
16	0x3c7f8c94	0.015597481
17	0xbd14b5a6	-0.036306046
18	0xbdad7e09	-0.08471305
19	0xbd363994	-0.044488505
20	0x3cf56fa2	0.029960457
21	0x3cf84176	0.030304652
22	0xbe0a8390	-0.1352675
23	0x3d812633	0.06306114
24	0x3da281ef	0.07934939
25	0x3d418fe4	0.047256365
26	0x3de7345a	0.11289282
27	0xbaaf1dd0	-0.0013360325
28	0x3d75a61d	0.05997287
29	0xbc581e53	-0.013190824
30	0xbd90fb30	-0.0707916
31	0x3d80d55a	0.062906936
32	0xbdd85af0	-0.1056422
33	0xbc1ce949	-0.009577104
34	0x3dc04c51	0.09389556
35	0x3d9592de	0.07303403
36	0x3df29c6e	0.11846243
37	0xbd17828b	-0.03698973
38	0x3d81346c	0.06308827
39	0x3be2f8f6	0.006926651
40	0x3b906d7d	0.0044075833
41	0xbcf7834c	-0.030213974
42	0x3d8d0abd	0.06886814
43	0x3daf1b11	0.085500844
44	0x3da4c8ed	0.08046136
45	0xbdd5509f	-0.10415768
46	0x3e1610d5	0.14654858
47	0x3aaac593	0.0013028852
48	0x3d3dc276	0.04632803
49	0x3d1df068	0.038559347
50	0x3d8e7fac	0.06957945
51	0xbd52d7a1	-0.05147517
52	0x3e2f4952	0.17117813
53	0x3d247f4c	0.040160462
54	0x3cf4c8c9	0.029880898
55	0x3e02137f	0.1270275
56	0x3e08ef93	0.1337264
57	0x3e04407c	0.12915224
58	0x3dbd19d8	0.09233445
59	0xbd6c5280	-0.057695866
60	0x3da4c432	0.08045234
61	0x3c6d0164	0.014465664
62	0xbce716d7	-0.028209133
63	0x3bb02761	0.005375788
64	0x3e29de94	0.16588813
65	0x3c62c23c	0.013840254
66	0x3d5faadc	0.054606304
67	0x3d222d5a	0.039594032
68	0x3d39a898	0.0453268
69	0xbcae9dae	-0.021315422
70	0x3cbf40f3	0.0233464
71	0x3dc74677	0.09730237
72	0x3d8ac8df	0.06776594
73	0x3d80d3bf	0.06290387
74	0x3dd09e86	0.10186486
75	0xbdb97c02	-0.09056856
76	0x3bfa9707	0.0076473984
77	0x3e423a9c	0.1896767
78	0xbd3c6ad4	-0.046000317
79	0x3e0fee71	0.14055802
80	0x3d862b36	0.065512106
81	0x3d48987b	0.04897354
82	0x3beb60b5	0.0071831592
83	0x3dce0179	0.10058875
84	0x3dde2aa7	0.10847979
85	0xbca95f04	-0.02067519
86	0x3d556d23	0.052106034
87	0x3d6f3833	0.058403205
88	0x3dd11b48	0.102102816
89	0xbd4d0af1	-0.050059263
90	0x3c4a7784	0.012357596
91	0x3baec9b1	0.005334102
92	0x3d1b7a1d	0.037958253
93	0x3d644a23	0.055734765
94	0xbda919a3	-0.08256843
95	0x3e8a0061	0.26953414
96	0xbe04404d	-0.12915154
97	0x3cf565e8	0.02995582
98	0x3e02f390	0.12788224
99	0x3c38243a	0.011239106
100	0xbd3bb07b	-0.0458226
101	0x3e1c9693	0.15291815
102	0xbc799d97	-0.015235326
103	0xbd17cac2	-0.0370586
104	0x3db93772	0.090437785
105	0xbc814e58	-0.015784428
106	0x3da690d6	0.08133094
107	0x3e4dad81	0.20085718
108	0xbc20e5d9	-0.009820425
109	0x3d55e8fb	0.05222414
110	0x3db66382	0.08905698
111	0xbc1b67cd	-0.009485197
112	0x3da01f02	0.07818414
113	0x3dc79d28	0.09746772
114	0xbbbfc73b	-0.0058526075
115	0xbd12eda1	-0.03587115
116	0x3e41c88c	0.18924159
117	0x3ca4c0d2	0.020111475
118	0x3dffe391	0.12494577
119	0x3c895dfe	0.016768452
120	0x3d519103	0.051163685
121	0x3ca45c0a	0.020063419
122	0xbdc3bf5c	-0.09557983
123	0x3d9b90bd	0.07595966
124	0xbe09c9a1	-0.13455822
125	0x3e43aca5	0.19108827
126	0x3c81e246	0.015854966
127	0xbd675b05	-0.056483287
128	0xbbbe26ca	-0.005802964
129	0x3d4d0664	0.050054923
130	0xbc9d39c6	-0.019192588
131	0x3d8bd128	0.06827003
132	0xbd80ad66	-0.06283073
133	0x3e0c6f52	0.1371434
134	0x3decadcb	0.11556586
135	0xbdac2057	-0.08404606
136	0x3d94faab	0.072743736
137	0xbda88904	-0.08229259
138	0x3cd2e83b	0.025745502
139	0x3bff3fbf	0.0077895815
140	0xbafb1377	-0.0019155581
141	0x3d42b20a	0.047533073
142	0x3de958e8	0.11393911
143	0x3d019596	0.031636797
144	0xbdd8bb3e	-0.105825886
145	0x3cb52932	0.02211437
146	0x3e1c9710	0.15292001
147	0xbda5506a	-0.080719784
148	0xbd27ce70	-0.04096836
149	0xbd8cf7f7	-0.06883233
150	0xbdb7fbb0	-0.089835525
151	0x3bf03bfb	0.007331369
152	0xbdad976e	-0.084761485
153	0x3d8b8beb	0.068137966
154	0xbe003b47	-0.12522613
155	0x3d66493b	0.05622218
156	0xbcbff3a1	-0.023431601
157	0xbce04487	-0.027376426
158	0x3d9b0306	0.07568936
159	0xbd30751f	-0.043080445
160	0xbcf326f9	-0.02968167
161	0x3d17bbcc	0.03704433
162	0x3d98dd35	0.07464067
163	0x3b088f3e	0.0020837332
164	0xbc11ff2c	-0.008910935
165	0xbd044fa4	-0.032302514
166	0x3d101c8e	0.035183482
167	0xbda01e06	-0.078182265
168	0xbd7f5d7e	-0.06234502
169	0x3dd212cc	0.102574915
170	0xbd359239	-0.044328902
171	0xbdb9de44	-0.09075597
172	0xbd8a882b	-0.06764253
173	0x3d902f55	0.07040278
174	0xbdaab0d0	-0.083345056
175	0xbcd2faa9	-0.02575429
176	0x3e2c2073	0.16809253
177	0xbd9b0ca9	-0.07570774
178	0xbc0ae67e	-0.008477805
179	0x3d7e277e	0.06204938
180	0x3d1d882c	0.03845994
181	0xbc4584be	-0.012055574
182	0x3d7ed441	0.06221414
183	0x38b40a7d	8.5850224e-05
184	0x3e18fd8e	0.14940473
185	0x3d6a6dd0	0.05723363
186	0x3da70bbf	0.08156537
187	0xbd9c2cb7	-0.07625716
188	0xbcae02f2	-0.021241639
189	0x3bb8362e	0.005621693
190	0xbd108748	-0.035285264
191	0xbbaa160a	-0.0051906155
192	0x3d5b1dab	0.05349509
193	0x3d6060a8	0.05477968
194	0xbe2e7af3	-0.17039089
195	0x3cb5adbf	0.022177575
196	0xbaf151fe	-0.0018411276
197	0xbe5bb6e8	-0.21456492
198	0x3d3b1701	0.045676235
199	0x3e111937	0.14169775
200	0xbb2ccadb	-0.0026366028
201	0x3da6fb96	0.08153455
202	0xbe1087bf	-0.14114283
203	0x3d57a712	0.052649565
204	0x3de751ca	0.11294897
205	0xbdf39eec	-0.11895546
206	0x3db9beaa	0.090695694
207	0x3da27463	0.07932355
208	0x3d773dfe	0.060361855
209	0x3d037223	0.03209127
210	0x3e21e048	0.15808213
211	0x3da57b7f	0.08080196
212	0xbda8c7a4	-0.082412034
213	0xbc3155e0	-0.010823697
214	0xbc94f98e	-0.018185403
215	0x3de1cdc6	0.11025576
216	0x3cba9fa9	0.02278121
217	0x3d55d367	0.052203562
218	0x3de3a4e5	0.111154355
219	0x3c01ff3d	0.007934389
220	0x3d82b86c	0.06382832
221	0x3cd646dd	0.026156837
222	0x3d6d0dd8	0.05787453
223	0xbda0e4c6	-0.07856135
224	0xbd830bbe	-0.06398724
225	0x3dad8af6	0.0847377
226	0x3c80707e	0.01567864
227	0x3e8a0cc6	0.2696287
228	0xbc89c44b	-0.016817233
229	0xbd9c630f	-0.076360814
230	0xbdd83f91	-0.10558999
231	0x3d91076a	0.07081492
232	0xbc88850c	-0.016665004
233	0x3d5a0635	0.053228576
234	0x3d91db60	0.071219206
235	0xbd202fb8	-0.03910801
236	0xbd01da34	-0.031702235
237	0x3b7cc105	0.0038567197
238	0x3d132ded	0.03593247
239	0x3d29804c	0.04138212
240	0xbd8384a9	-0.06421787
241	0x3d27c8fe	0.040963165
242	0x3d86e45a	0.06586523
243	0x3db43b5e	0.08800386
244	0xbd03b9cf	-0.032159623
245	0xbd01784e	-0.031608872
246	0x3d910baa	0.07082303
247	0xbdab1385	-0.083533324
248	0x3d9575f3	0.07297888
249	0xbcbf5cd1	-0.023359688
250	0xbdccfb26	-0.1000884
251	0xbdc8dd49	-0.09807832
252	0xbd8de443	-0.06928303
253	0xbd731a8b	-0.059351485
254	0xbd8e1b6f	-0.06938826
255	0x3d686186	0.05673363

linear1.bias f4 [84]
0	0x3cb043ec	0.021516763
1	0xbd3b7ba4	-0.04577221
2	0xbd0059fb	-0.031335812
3	0xbdcb6b66	-0.09932594
4	0xbd0e6c00	-0.034770966
5	0x3df3ad3e	0.11898278
6	0xba1319f6	-0.00056114735
7	0xbd9f9167	-0.07791405
8	0x3e06645d	0.13124223
9	0xbd4d3454	-0.050098732
10	0x3d94838d	0.07251654
11	0x3ce66dc5	0.028128514
12	0xbd6d2cae	-0.057903938
13	0x3d2f1e4a	0.042753495
14	0x3cd9a56f	0.026568143
15	0x3d877f81	0.06616116
16	0x3d1c8bcf	0.03821927
17	0x3cf7c898	0.030247018
18	0x3ce66784	0.028125532
19	0x3d390c06	0.045177482
20	0x3d8a7146	0.067598864
21	0xbd89a188	-0.06720263
22	0xbdaa8e85	-0.08327965
23	0xbcacaaae	-0.02107748
24	0x3dce0817	0.10060137
25	0x3dc9f6fe	0.09861563
26	0xbdccd428	-0.10001403
27	0x3d10fe11	0.035398547
28	0xbd2ffaf9	-0.042963956
29	0xbd3fc1f0	-0.046815813
30	0x3db16c5c	0.08663246
31	0x3d1c7ddb	0.038205963
32	0x3bbd56bd	0.0057781623
33	0xbd40c55f	-0.047063228
34	0x3d77a9b3	0.060464572
35	0xbd3af86f	-0.04564708
36	0x3d720fe2	0.05909718
37	0xbdbfd2fb	-0.09366413
38	0xbd579349	-0.052630696
39	0xbc75133a	-0.014958197
40	0xbcf28ec9	-0.0296091
41	0x3c74ab74	0.014933456
42	0x3dd77db1	0.105220206
43	0x3e46adb8	0.19402206
44	0xbb0ece32	-0.0021790382
45	0xba06e3a5	-0.0005145616
46	0x3e270f17	0.1631435
47	0x3d42c416	0.047550283
48	0x3cdd0da0	0.026984036
49	0x3c06ee07	0.008235461
50	0xbd43e779	-0.04782817
51	0x3e3822cd	0.17982025
52	0x3d005e42	0.03133989
53	0x3e4420ca	0.19153133
54	0x3e215bb3	0.15757637
55	0x3d48366b	0.048880022
56	0xbd2e17a5	-0.042503018
57	0xbd6d700d	-0.057968188
58	0xbd939a89	-0.072072096
59	0xbbfe6307	-0.00776327
60	0x3e0b2e50	0.13591886
61	0x3c7139c8	0.014723249
62	0x3ca79d4f	0.020460753
63	0xbd323eb3	-0.043516826
64	0x3d48fbe3	0.049068343
65	0xbdde303c	-0.10849044
66	0xbd9aff4e	-0.07568227
67	0xbd80d323	-0.06290271
68	0xbd7799ed	-0.06044953
69	0x3b80d274	0.003931338
70	0xbe07c266	-0.13257751
71	0xbd112192	-0.035432406
72	0xbd357ad4	-0.04430659
73	0x3e0aac93	0.13542394
74	0x3d1ddf5f	0.0385431
75	0xbd69bba8	-0.05706373
76	0xbcabbc03	-0.020963674
77	0xbd7ca90b	-0.06168465
78	0xbd7c7517	-0.061635103
79	0x3c8652ad	0.016396845
80	0xbd81581f	-0.06315636
81	0xbdd82b8c	-0.10555181
82	0x3dc7c071	0.09753502
83	0xbdbabc84	-0.09117988

linear2.weight f4 [3, 84]
0	0x3d90e2f9	0.070745416
1	0xbe59bf26	-0.21264324
2	0xbd9adc75	-0.0756158
3	0x3d50d22f	0.050981697
4	0xbdb5b3de	-0.088721976
5	0xba4b4bf6	-0.00077551545
6	0x3c4dd2a1	0.012562425
7	0x3d0c9daf	0.034330066
8	0xbd84fcfb	-0.06493565
9	0x3d6d63e3	0.057956588
10	0xbcd3e754	-0.025867142
11	0x3da0f8f9	0.07859988
12	0x3e073d12	0.1320689
13	0xbcd98eea	-0.026557405
14	0xbd475d6a	-0.04867307
15	0xbe92027b	-0.28517517
16	0xbdc26021	-0.094909914
17	0x3cf8d530	0.030375093
18	0xbcba2071	-0.022720547
19	0x3df24b36	0.118307516
20	0xbe73fe05	-0.2382737
21	0x3d14c792	0.036323138
22	0xbc433535	-0.011914541
23	0x3da55ae6	0.08073978
24	0xbe96a875	-0.29425398
25	0xbe3506ba	-0.17678347
26	0x3d626249	0.055269513
27	0xbd92e6fd	-0.07172964
28	0xbc9ec63c	-0.019381635
29	0x3e165183	0.14679532
30	0xbdcb225c	-0.09918663
31	0x3dab8a91	0.08376039
32	0x3d45b10a	0.04826454
33	0xbdc605c8	-0.096690714
34	0x3de872b3	0.11350002
35	0xbd36094e	-0.044442467
36	0xbe9ab6e4	-0.3021766
37	0x3d4c8f5e	0.049941413
38	0xbdaf8b57	-0.08571499
39	0x3dcfaabe	0.10139988
40	0xbd6fb326	-0.05852046
41	0x3e126f8f	0.14300369
42	0x3d78da1b	0.060754877
43	0xbe314c9c	-0.1731438
44	0xbe802afc	-0.25032794
45	0x3e07b791	0.13253619
46	0x3c3c0a47	0.01147706
47	0xbccd691a	-0.02507453
48	0x3e2bdd90	0.16783738
49	0xbe46b623	-0.19405417
50	0x3c99fc0e	0.018796947
51	0xbe2f3512	-0.17110088
52	0xbe870e0b	-0.263779
53	0xbd8be306	-0.06830411
54	0xbd133806	-0.0359421
55	0x3cbf2bfd	0.023336405
56	0x3c8ab242	0.016930703
57	0xbd7fcddf	-0.062452193
58	0xbcf860a8	-0.030319527
59	0x3e023a8e	0.1271765
60	0xbd71e5a5	-0.059056897
61	0xbdce6304	-0.100774795
62	0xbdae298e	-0.0850402
63	0x3d8600a5	0.06543092
64	0xbd4ccdbc	-0.05000089
65	0x3d97087a	0.07374664
66	0x3c82d89c	0.015972428
67	0x3d8f3be2	0.069938436
68	0x3dabd8ff	0.08390998
69	0x3e1a49cd	0.15067215
70	0x3d3cb229	0.046068344
71	0x3d980621	0.07423044
72	0x3d8b9483	0.06815436
73	0x3cea04c3	0.028566724
74	0x3dfafcbe	0.12255238
75	0xbdc4cfb6	-0.0960993
76	0x3d863557	0.065531425
77	0xbd5e8288	-0.054323703
78	0xbe37392e	-0.17892906
79	0xbc9c67e9	-0.019092517
80	0x3de72a7b	0.112873994
81	0x3e01dbf2	0.12681559
82	0x3d6ad636	0.057333194
83	0xbd688bbb	-0.056773882
84	0x3dc052cb	0.093907915
85	0x3e57186e	0.21005413
86	0xbd6dee03	-0.058088314
87	0x3b6dfb7f	0.0036313233
88	0xbd7f0e27	-0.062269356
89	0xbdfcaee4	-0.12338045
90	0xbd7e3b94	-0.062068537
91	0xbd8e1b22	-0.06938769
92	0xbe318716	-0.17336687
93	0x3e106f21	0.14104892
94	0x3da97c90	0.082757115
95	0x3d144217	0.03619584
96	0x3ca8de7a	0.020613898
97	0xbdb87452	-0.09006561
98	0x3dd05274	0.10171977
99	0x3ea105bf	0.31449696
100	0xbd60f1e0	-0.05491817
101	0x3c475ab7	0.012167624
102	0x3d11bad7	0.035578575
103	0xbe038d42	-0.12846854
104	0x3e88b575	0.2670094
105	0xbd89c301	-0.06726647
106	0xbcf06a81	-0.02934766
107	0xbd865f0d	-0.06561098
108	0x3e180177	0.14844309
109	0x3e1f07f6	0.1553038
110	0x3d8dd37a	0.069251016
111	0xbc81119e	-0.01575547
112	0xbca9595b	-0.02067249
113	0x3d81649d	0.063180186
114	0x3dec9877	0.11552518
115	0x3df2f0b6	0.11862318
116	0x3dbfed36	0.09371416
117	0xbccb2e58	-0.024802372
118	0xbe1f205a	-0.15539685
119	0xbd801416	-0.06253831
120	0x3e834ea1	0.25645927
121	0x3d2d7e9c	0.042357072
122	0xbd8cfbd2	-0.068839684
123	0x3d9ecd20	0.07753968
124	0xbbfbe6b3	-0.0076874136
125	0xbe05b062	-0.13055566
126	0xbda9bfe5	-0.08288554
127	0xbe6b2cf7	-0.22966371
128	0x3e9fb672	0.31193882
129	0x3dee3278	0.1163072
130	0xbe1ea734	-0.1549347
131	0xbca64ca0	-0.02030021
132	0x3ceb8c67	0.028753472
133	0x3e3b5c3a	0.182969
134	0xbdb936e4	-0.09043673
135	0xbe85e242	-0.26149184
136	0x3e693119	0.22772636
137	0xbdced317	-0.10098856
138	0xbe449670	-0.19198012
139	0xbde1e36f	-0.11029708
140	0xbda82ca0	-0.082116365
141	0xbd31b388	-0.043384105
142	0x3d750d98	0.059827417
143	0x3daabfd7	0.08337372
144	0xbe35c015	-0.17749055
145	0x3e2d4971	0.16922547
146	0x3e45c849	0.19314684
147	0xbdd34582	-0.10315992
148	0x3d55e9b0	0.052224815
149	0xbd356044	-0.04428126
150	0xbd2627fd	-0.04056548
151	0xbe0696f9	-0.13143529
152	0xbd3aac97	-0.04557475
153	0x3cc34175	0.023834923
154	0xbd9c63ff	-0.0763626
155	0xbd9ae43a	-0.07563062
156	0xbcb32107	-0.021866335
157	0xbe54e7bf	-0.20791529
158	0xbdc41564	-0.095743924
159	0xbd1324ad	-0.03592365
160	0xbe17f880	-0.14840889
161	0x3a3fef31	0.0007321714
162	0x3e2b499a	0.16727296
163	0xbdb695fc	-0.08915326
164	0xbe4b5106	-0.19855127
165	0xbd944dd8	-0.0724141
166	0xbe163bbe	-0.14671227
167	0x3da7938d	0.0818244
168	0xbe04d7c4	-0.12972933
169	0xbdc7b52a	-0.09751351
170	0x3d8dba99	0.06920356
171	0xbdc17c29	-0.0944751
172	0xbdbaa6f1	-0.09113873
173	0x3d3e7b15	0.0465041
174	0x3d3684ba	0.04456017
175	0xbdcad645	-0.0990415
176	0x3e4ede9a	0.20202103
177	0xbe60bec0	-0.21947765
178	0x3c9fa8ff	0.019489763
179	0xbe20d821	-0.15707447
180	0xbd9dc994	-0.077044636
181	0x3d9a5b77	0.07536977
182	0xbe6dc4d6	-0.23219618
183	0xbd602ba1	-0.054729108
184	0xbc8aa62c	-0.01692494
185	0xbe32401f	-0.17407273
186	0x3d1df91e	0.038567655
187	0x3c9a7b7c	0.01885771
188	0xbdab9238	-0.083774984
189	0xbd9385f0	-0.07203281
190	0xbd57714a	-0.052598275
191	0xbd03b141	-0.032151464
192	0x3e3bd35c	0.18342346
193	0xbe2387b2	-0.15969732
194	0xbe256f80	-0.16155815
195	0xbd8a6a3a	-0.06758542
196	0xbc74c639	-0.014939838
197	0xbbda67a6	-0.006665188
198	0xbe7eb526	-0.2487379
199	0xbe3f805a	-0.18701306
200	0xbe3e0728	-0.18557417
201	0x3da5cd49	0.08095796
202	0x3d431ea1	0.047636632
203	0xbdbec5ce	-0.09315072
204	0xbdb234e5	-0.08701495
205	0x3d900d9a	0.07033844
206	0xbb7114c8	-0.0036786068
207	0xbdd73b70	-0.10509384
208	0xbcc12a11	-0.02357963
209	0xbdd1e777	-0.102492265
210	0x3d9a8ae2	0.07546021
211	0x3e5e052b	0.21681659
212	0xbd12fb3d	-0.03588413
213	0xbe30c4ef	-0.17262624
214	0x3e38d5d0	0.18050313
215	0xbbea66b9	-0.007153359
216	0x3d0c9f93	0.03433187
217	0xbe2904bf	-0.16505717
218	0xbd8cd299	-0.06876106
219	0x3dc5cf0b	0.09658631
220	0x3d3356ee	0.043784074
221	0x3e8b6242	0.27223402
222	0x3ded1de8	0.1157797
223	0x3a5643a7	0.0008173533
224	0x3d999597	0.07499235
225	0xbd236497	-0.03989085
226	0xbaf06331	-0.0018340108
227	0xbdf8fe60	-0.12157893
228	0x3cdb52ef	0.026772944
229	0xbe464244	-0.19361216
230	0xbe5929ea	-0.21207395
231	0xbda91892	-0.082566395
232	0x3d94c293	0.072636746
233	0xbd55b69c	-0.052176103
234	0xbbdbaba0	-0.006703809
235	0xbdd92fd1	-0.106048234
236	0xbe00d0ae	-0.12579605
237	0xbe0a7003	-0.13519292
238	0xbe55e02f	-0.208863
239	0xbe1deecf	-0.1542313
240	0xbd73c8d0	-0.05951768
241	0x3db6f5ff	0.08933639
242	0x3bb9e21b	0.005672706
243	0xbdb275bf	-0.087138645
244	0x3ddf17cc	0.10893211
245	0xbdb1ae91	-0.08675874
246	0xbd8ff1e6	-0.0702856
247	0x3d0dd768	0.034629256
248	0x3dbb660c	0.09150323
249	0x3ce27dcc	0.027647875
250	0x3da12e13	0.07870116
251	0x3d995087	0.074860625

linear2.bias f4 [3]
0	0xbacdd771	-0.0015704465
1	0x3da8c35a	0.08240385
2	0x3db9c531	0.090708144
